<net name="adl_pcami_seg" version="10">
	<layers>
		<layer id="0" name="data_add_1746517470" type="Const" version="opset1">
			<data element_type="f16" offset="0" shape="1,256,1,1" size="512" />
			<output>
				<port id="0" precision="FP16">
					<dim>1</dim>
					<dim>256</dim>
					<dim>1</dim>
					<dim>1</dim>
				</port>
			</output>
		</layer>
		<layer id="1" name="data_add_1744917454" type="Const" version="opset1">
			<data element_type="f16" offset="512" shape="1,256,1,1" size="512" />
			<output>
				<port id="0" precision="FP16">
					<dim>1</dim>
					<dim>256</dim>
					<dim>1</dim>
					<dim>1</dim>
				</port>
			</output>
		</layer>
		<layer id="2" name="data_add_1744117446" type="Const" version="opset1">
			<data element_type="f16" offset="1024" shape="1,320,1,1" size="640" />
			<output>
				<port id="0" precision="FP16">
					<dim>1</dim>
					<dim>320</dim>
					<dim>1</dim>
					<dim>1</dim>
				</port>
			</output>
		</layer>
		<layer id="3" name="MobilenetV2/expanded_conv_16/project/BatchNorm/FusedBatchNormV3/mean/Fused_Mul__copy" type="Const" version="opset1">
			<data element_type="f16" offset="1664" shape="320,960,1,1" size="614400" />
			<output>
				<port id="0" names="MobilenetV2/expanded_conv_16/project/weights/read:0" precision="FP16">
					<dim>320</dim>
					<dim>960</dim>
					<dim>1</dim>
					<dim>1</dim>
				</port>
			</output>
		</layer>
		<layer id="4" name="data_add_1743317438" type="Const" version="opset1">
			<data element_type="f16" offset="616064" shape="1,960,1,1" size="1920" />
			<output>
				<port id="0" precision="FP16">
					<dim>1</dim>
					<dim>960</dim>
					<dim>1</dim>
					<dim>1</dim>
				</port>
			</output>
		</layer>
		<layer id="5" name="data_add_1742517430" type="Const" version="opset1">
			<data element_type="f16" offset="617984" shape="1,960,1,1" size="1920" />
			<output>
				<port id="0" precision="FP16">
					<dim>1</dim>
					<dim>960</dim>
					<dim>1</dim>
					<dim>1</dim>
				</port>
			</output>
		</layer>
		<layer id="6" name="data_add_1736917374" type="Const" version="opset1">
			<data element_type="f16" offset="619904" shape="1,160,1,1" size="320" />
			<output>
				<port id="0" precision="FP16">
					<dim>1</dim>
					<dim>160</dim>
					<dim>1</dim>
					<dim>1</dim>
				</port>
			</output>
		</layer>
		<layer id="7" name="MobilenetV2/expanded_conv_13/project/BatchNorm/FusedBatchNormV3/mean/Fused_Mul__copy" type="Const" version="opset1">
			<data element_type="f16" offset="620224" shape="160,576,1,1" size="184320" />
			<output>
				<port id="0" names="MobilenetV2/expanded_conv_13/project/weights/read:0" precision="FP16">
					<dim>160</dim>
					<dim>576</dim>
					<dim>1</dim>
					<dim>1</dim>
				</port>
			</output>
		</layer>
		<layer id="8" name="data_add_1736117366" type="Const" version="opset1">
			<data element_type="f16" offset="804544" shape="1,576,1,1" size="1152" />
			<output>
				<port id="0" precision="FP16">
					<dim>1</dim>
					<dim>576</dim>
					<dim>1</dim>
					<dim>1</dim>
				</port>
			</output>
		</layer>
		<layer id="9" name="data_add_1735317358" type="Const" version="opset1">
			<data element_type="f16" offset="805696" shape="1,576,1,1" size="1152" />
			<output>
				<port id="0" precision="FP16">
					<dim>1</dim>
					<dim>576</dim>
					<dim>1</dim>
					<dim>1</dim>
				</port>
			</output>
		</layer>
		<layer id="10" name="data_add_1729717302" type="Const" version="opset1">
			<data element_type="f16" offset="806848" shape="1,96,1,1" size="192" />
			<output>
				<port id="0" precision="FP16">
					<dim>1</dim>
					<dim>96</dim>
					<dim>1</dim>
					<dim>1</dim>
				</port>
			</output>
		</layer>
		<layer id="11" name="MobilenetV2/expanded_conv_10/project/BatchNorm/FusedBatchNormV3/mean/Fused_Mul__copy" type="Const" version="opset1">
			<data element_type="f16" offset="807040" shape="96,384,1,1" size="73728" />
			<output>
				<port id="0" names="MobilenetV2/expanded_conv_10/project/weights/read:0" precision="FP16">
					<dim>96</dim>
					<dim>384</dim>
					<dim>1</dim>
					<dim>1</dim>
				</port>
			</output>
		</layer>
		<layer id="12" name="data_add_1728917294" type="Const" version="opset1">
			<data element_type="f16" offset="880768" shape="1,384,1,1" size="768" />
			<output>
				<port id="0" precision="FP16">
					<dim>1</dim>
					<dim>384</dim>
					<dim>1</dim>
					<dim>1</dim>
				</port>
			</output>
		</layer>
		<layer id="13" name="data_add_1728117286" type="Const" version="opset1">
			<data element_type="f16" offset="881536" shape="1,384,1,1" size="768" />
			<output>
				<port id="0" precision="FP16">
					<dim>1</dim>
					<dim>384</dim>
					<dim>1</dim>
					<dim>1</dim>
				</port>
			</output>
		</layer>
		<layer id="14" name="data_add_1720117206" type="Const" version="opset1">
			<data element_type="f16" offset="882304" shape="1,64,1,1" size="128" />
			<output>
				<port id="0" precision="FP16">
					<dim>1</dim>
					<dim>64</dim>
					<dim>1</dim>
					<dim>1</dim>
				</port>
			</output>
		</layer>
		<layer id="15" name="MobilenetV2/expanded_conv_6/project/BatchNorm/FusedBatchNormV3/mean/Fused_Mul__copy" type="Const" version="opset1">
			<data element_type="f16" offset="882432" shape="64,192,1,1" size="24576" />
			<output>
				<port id="0" names="MobilenetV2/expanded_conv_6/project/weights/read:0" precision="FP16">
					<dim>64</dim>
					<dim>192</dim>
					<dim>1</dim>
					<dim>1</dim>
				</port>
			</output>
		</layer>
		<layer id="16" name="data_add_1719317198" type="Const" version="opset1">
			<data element_type="f16" offset="907008" shape="1,192,1,1" size="384" />
			<output>
				<port id="0" precision="FP16">
					<dim>1</dim>
					<dim>192</dim>
					<dim>1</dim>
					<dim>1</dim>
				</port>
			</output>
		</layer>
		<layer id="17" name="data_add_1718517190" type="Const" version="opset1">
			<data element_type="f16" offset="907392" shape="1,192,1,1" size="384" />
			<output>
				<port id="0" precision="FP16">
					<dim>1</dim>
					<dim>192</dim>
					<dim>1</dim>
					<dim>1</dim>
				</port>
			</output>
		</layer>
		<layer id="18" name="data_add_1712917134" type="Const" version="opset1">
			<data element_type="f16" offset="907776" shape="1,32,1,1" size="64" />
			<output>
				<port id="0" precision="FP16">
					<dim>1</dim>
					<dim>32</dim>
					<dim>1</dim>
					<dim>1</dim>
				</port>
			</output>
		</layer>
		<layer id="19" name="MobilenetV2/expanded_conv_3/project/BatchNorm/FusedBatchNormV3/mean/Fused_Mul__copy" type="Const" version="opset1">
			<data element_type="f16" offset="907840" shape="32,144,1,1" size="9216" />
			<output>
				<port id="0" names="MobilenetV2/expanded_conv_3/project/weights/read:0" precision="FP16">
					<dim>32</dim>
					<dim>144</dim>
					<dim>1</dim>
					<dim>1</dim>
				</port>
			</output>
		</layer>
		<layer id="20" name="data_add_1712117126" type="Const" version="opset1">
			<data element_type="f16" offset="917056" shape="1,144,1,1" size="288" />
			<output>
				<port id="0" precision="FP16">
					<dim>1</dim>
					<dim>144</dim>
					<dim>1</dim>
					<dim>1</dim>
				</port>
			</output>
		</layer>
		<layer id="21" name="data_add_1711317118" type="Const" version="opset1">
			<data element_type="f16" offset="917344" shape="1,144,1,1" size="288" />
			<output>
				<port id="0" precision="FP16">
					<dim>1</dim>
					<dim>144</dim>
					<dim>1</dim>
					<dim>1</dim>
				</port>
			</output>
		</layer>
		<layer id="22" name="data_add_1708117086" type="Const" version="opset1">
			<data element_type="f16" offset="917632" shape="1,24,1,1" size="48" />
			<output>
				<port id="0" precision="FP16">
					<dim>1</dim>
					<dim>24</dim>
					<dim>1</dim>
					<dim>1</dim>
				</port>
			</output>
		</layer>
		<layer id="23" name="MobilenetV2/expanded_conv_1/project/BatchNorm/FusedBatchNormV3/mean/Fused_Mul__copy" type="Const" version="opset1">
			<data element_type="f16" offset="917680" shape="24,96,1,1" size="4608" />
			<output>
				<port id="0" names="MobilenetV2/expanded_conv_1/project/weights/read:0" precision="FP16">
					<dim>24</dim>
					<dim>96</dim>
					<dim>1</dim>
					<dim>1</dim>
				</port>
			</output>
		</layer>
		<layer id="24" name="data_add_1707317078" type="Const" version="opset1">
			<data element_type="f16" offset="922288" shape="1,96,1,1" size="192" />
			<output>
				<port id="0" precision="FP16">
					<dim>1</dim>
					<dim>96</dim>
					<dim>1</dim>
					<dim>1</dim>
				</port>
			</output>
		</layer>
		<layer id="25" name="data_add_1706517070" type="Const" version="opset1">
			<data element_type="f16" offset="922480" shape="1,96,1,1" size="192" />
			<output>
				<port id="0" precision="FP16">
					<dim>1</dim>
					<dim>96</dim>
					<dim>1</dim>
					<dim>1</dim>
				</port>
			</output>
		</layer>
		<layer id="26" name="data_add_1705717062" type="Const" version="opset1">
			<data element_type="f16" offset="922672" shape="1,16,1,1" size="32" />
			<output>
				<port id="0" precision="FP16">
					<dim>1</dim>
					<dim>16</dim>
					<dim>1</dim>
					<dim>1</dim>
				</port>
			</output>
		</layer>
		<layer id="27" name="MobilenetV2/expanded_conv/project/BatchNorm/FusedBatchNormV3/mean/Fused_Mul__copy" type="Const" version="opset1">
			<data element_type="f16" offset="922704" shape="16,32,1,1" size="1024" />
			<output>
				<port id="0" names="MobilenetV2/expanded_conv/project/weights/read:0" precision="FP16">
					<dim>16</dim>
					<dim>32</dim>
					<dim>1</dim>
					<dim>1</dim>
				</port>
			</output>
		</layer>
		<layer id="28" name="data_add_1704917054" type="Const" version="opset1">
			<data element_type="f16" offset="923728" shape="1,32,1,1" size="64" />
			<output>
				<port id="0" precision="FP16">
					<dim>1</dim>
					<dim>32</dim>
					<dim>1</dim>
					<dim>1</dim>
				</port>
			</output>
		</layer>
		<layer id="29" name="data_add_17046" type="Const" version="opset1">
			<data element_type="f16" offset="923792" shape="1,32,1,1" size="64" />
			<output>
				<port id="0" precision="FP16">
					<dim>1</dim>
					<dim>32</dim>
					<dim>1</dim>
					<dim>1</dim>
				</port>
			</output>
		</layer>
		<layer id="30" name="mul/x" type="Const" version="opset1">
			<data element_type="f16" offset="923856" shape="1,1,1,1" size="2" />
			<output>
				<port id="0" names="mul/x:0" precision="FP16">
					<dim>1</dim>
					<dim>1</dim>
					<dim>1</dim>
					<dim>1</dim>
				</port>
			</output>
		</layer>
		<layer id="31" name="pad_to_bounding_box/Squeeze/Dims" type="Const" version="opset1">
			<data element_type="i64" offset="923858" shape="1" size="8" />
			<output>
				<port id="0" precision="I64">
					<dim>1</dim>
				</port>
			</output>
		</layer>
		<layer id="32" name="pad_to_bounding_box/Pad/pad_value_convert_input_port_0/value" type="Const" version="opset1">
			<data element_type="f16" offset="923866" shape="" size="2" />
			<output>
				<port id="0" precision="FP16" />
			</output>
		</layer>
		<layer id="33" name="pad_to_bounding_box/ExpandDims/dim" type="Const" version="opset1">
			<data element_type="i64" offset="923858" shape="1" size="8" />
			<output>
				<port id="0" names="pad_to_bounding_box/ExpandDims/dim:0" precision="I64">
					<dim>1</dim>
				</port>
			</output>
		</layer>
		<layer id="34" name="Reshape" type="Const" version="opset1">
			<data element_type="f16" offset="923868" shape="1,1,3" size="6" />
			<output>
				<port id="0" names="Reshape:0" precision="FP16">
					<dim>1</dim>
					<dim>1</dim>
					<dim>3</dim>
				</port>
			</output>
		</layer>
		<layer id="35" name="Squeeze/Dims" type="Const" version="opset1">
			<data element_type="i64" offset="923858" shape="1" size="8" />
			<output>
				<port id="0" precision="I64">
					<dim>1</dim>
				</port>
			</output>
		</layer>
		<layer id="36" name="ImageTensor/reverse_input_channels/Split_input_port_1/value2906731423" type="Const" version="opset1">
			<data element_type="i64" offset="923874" shape="" size="8" />
			<output>
				<port id="0" precision="I64" />
			</output>
		</layer>
		<layer id="37" name="ImageTensor" type="Parameter" version="opset1">
			<data element_type="f16" shape="1,3,240,240" />
			<output>
				<port id="0" precision="FP16">
					<dim>1</dim>
					<dim>3</dim>
					<dim>240</dim>
					<dim>240</dim>
				</port>
			</output>
		</layer>
		<layer id="38" name="ImageTensor/reverse_input_channels/Split" type="Split" version="opset1">
			<data num_splits="3" />
			<input>
				<port id="0">
					<dim>1</dim>
					<dim>3</dim>
					<dim>240</dim>
					<dim>240</dim>
				</port>
				<port id="1" />
			</input>
			<output>
				<port id="2" precision="FP16">
					<dim>1</dim>
					<dim>1</dim>
					<dim>240</dim>
					<dim>240</dim>
				</port>
				<port id="3" precision="FP16">
					<dim>1</dim>
					<dim>1</dim>
					<dim>240</dim>
					<dim>240</dim>
				</port>
				<port id="4" precision="FP16">
					<dim>1</dim>
					<dim>1</dim>
					<dim>240</dim>
					<dim>240</dim>
				</port>
			</output>
		</layer>
		<layer id="39" name="ImageTensor/reverse_input_channels/Concat" type="Concat" version="opset1">
			<data axis="1" />
			<input>
				<port id="0">
					<dim>1</dim>
					<dim>1</dim>
					<dim>240</dim>
					<dim>240</dim>
				</port>
				<port id="1">
					<dim>1</dim>
					<dim>1</dim>
					<dim>240</dim>
					<dim>240</dim>
				</port>
				<port id="2">
					<dim>1</dim>
					<dim>1</dim>
					<dim>240</dim>
					<dim>240</dim>
				</port>
			</input>
			<output>
				<port id="3" precision="FP16">
					<dim>1</dim>
					<dim>3</dim>
					<dim>240</dim>
					<dim>240</dim>
				</port>
			</output>
		</layer>
		<layer id="40" name="ImageTensor/Transpose/value2157231405" type="Const" version="opset1">
			<data element_type="i64" offset="923882" shape="4" size="32" />
			<output>
				<port id="0" precision="I64">
					<dim>4</dim>
				</port>
			</output>
		</layer>
		<layer id="41" name="ImageTensor/Transpose" type="Transpose" version="opset1">
			<input>
				<port id="0">
					<dim>1</dim>
					<dim>3</dim>
					<dim>240</dim>
					<dim>240</dim>
				</port>
				<port id="1">
					<dim>4</dim>
				</port>
			</input>
			<output>
				<port id="2" names="ImageTensor:0" precision="FP16">
					<dim>1</dim>
					<dim>240</dim>
					<dim>240</dim>
					<dim>3</dim>
				</port>
			</output>
		</layer>
		<layer id="42" name="Squeeze" type="Squeeze" version="opset1">
			<input>
				<port id="0">
					<dim>1</dim>
					<dim>240</dim>
					<dim>240</dim>
					<dim>3</dim>
				</port>
				<port id="1">
					<dim>1</dim>
				</port>
			</input>
			<output>
				<port id="2" names="Cast:0,Squeeze:0" precision="FP16">
					<dim>240</dim>
					<dim>240</dim>
					<dim>3</dim>
				</port>
			</output>
		</layer>
		<layer id="43" name="pad_to_bounding_box/sub" type="Add" version="opset1">
			<data auto_broadcast="numpy" />
			<input>
				<port id="0">
					<dim>240</dim>
					<dim>240</dim>
					<dim>3</dim>
				</port>
				<port id="1">
					<dim>1</dim>
					<dim>1</dim>
					<dim>3</dim>
				</port>
			</input>
			<output>
				<port id="2" names="pad_to_bounding_box/sub:0" precision="FP16">
					<dim>240</dim>
					<dim>240</dim>
					<dim>3</dim>
				</port>
			</output>
		</layer>
		<layer id="44" name="pad_to_bounding_box/ExpandDims" type="Unsqueeze" version="opset1">
			<input>
				<port id="0">
					<dim>240</dim>
					<dim>240</dim>
					<dim>3</dim>
				</port>
				<port id="1">
					<dim>1</dim>
				</port>
			</input>
			<output>
				<port id="2" precision="FP16">
					<dim>1</dim>
					<dim>240</dim>
					<dim>240</dim>
					<dim>3</dim>
				</port>
			</output>
		</layer>
		<layer id="45" name="pad_to_bounding_box/ExpandDims/Transpose/value2158831201" type="Const" version="opset1">
			<data element_type="i64" offset="923914" shape="4" size="32" />
			<output>
				<port id="0" precision="I64">
					<dim>4</dim>
				</port>
			</output>
		</layer>
		<layer id="46" name="pad_to_bounding_box/ExpandDims/Transpose" type="Transpose" version="opset1">
			<input>
				<port id="0">
					<dim>1</dim>
					<dim>240</dim>
					<dim>240</dim>
					<dim>3</dim>
				</port>
				<port id="1">
					<dim>4</dim>
				</port>
			</input>
			<output>
				<port id="2" names="pad_to_bounding_box/ExpandDims:0" precision="FP16">
					<dim>1</dim>
					<dim>3</dim>
					<dim>240</dim>
					<dim>240</dim>
				</port>
			</output>
		</layer>
		<layer id="47" name="pad_to_bounding_box/Pad/pad_value_convert" type="ConvertLike" version="opset1">
			<input>
				<port id="0" />
				<port id="1">
					<dim>1</dim>
					<dim>3</dim>
					<dim>240</dim>
					<dim>240</dim>
				</port>
			</input>
			<output>
				<port id="2" precision="FP16" />
			</output>
		</layer>
		<layer id="48" name="pad_to_bounding_box/stack_4/Unsqueeze" type="Const" version="opset1">
			<data element_type="i32" offset="923946" shape="1,2" size="8" />
			<output>
				<port id="0" precision="I32">
					<dim>1</dim>
					<dim>2</dim>
				</port>
			</output>
		</layer>
		<layer id="49" name="pad_to_bounding_box/stack_4/Unsqueeze1082_input_port_1/value" type="Const" version="opset1">
			<data element_type="i64" offset="923954" shape="1" size="8" />
			<output>
				<port id="0" precision="I64">
					<dim>1</dim>
				</port>
			</output>
		</layer>
		<layer id="50" name="pad_to_bounding_box/stack_1/Unsqueeze" type="Const" version="opset1">
			<data element_type="i32" offset="923962" shape="1" size="4" />
			<output>
				<port id="0" precision="I32">
					<dim>1</dim>
				</port>
			</output>
		</layer>
		<layer id="51" name="Shape_1" type="ShapeOf" version="opset3">
			<data output_type="i32" />
			<input>
				<port id="0">
					<dim>240</dim>
					<dim>240</dim>
					<dim>3</dim>
				</port>
			</input>
			<output>
				<port id="1" names="Shape_1:0" precision="I32">
					<dim>3</dim>
				</port>
			</output>
		</layer>
		<layer id="52" name="strided_slice_1/stack" type="Const" version="opset1">
			<data element_type="i64" offset="923954" shape="1" size="8" />
			<output>
				<port id="0" names="strided_slice_1/stack:0" precision="I64">
					<dim>1</dim>
				</port>
			</output>
		</layer>
		<layer id="53" name="strided_slice_1/stack_1" type="Const" version="opset1">
			<data element_type="i64" offset="923874" shape="1" size="8" />
			<output>
				<port id="0" names="strided_slice_1/stack_1:0" precision="I64">
					<dim>1</dim>
				</port>
			</output>
		</layer>
		<layer id="54" name="strided_slice_1/stack_2" type="Const" version="opset1">
			<data element_type="i64" offset="923874" shape="1" size="8" />
			<output>
				<port id="0" names="strided_slice_1/stack_2:0" precision="I64">
					<dim>1</dim>
				</port>
			</output>
		</layer>
		<layer id="55" name="strided_slice_1" type="StridedSlice" version="opset1">
			<data begin_mask="0" ellipsis_mask="0" end_mask="0" new_axis_mask="0" shrink_axis_mask="1" />
			<input>
				<port id="0">
					<dim>3</dim>
				</port>
				<port id="1">
					<dim>1</dim>
				</port>
				<port id="2">
					<dim>1</dim>
				</port>
				<port id="3">
					<dim>1</dim>
				</port>
			</input>
			<output>
				<port id="4" names="strided_slice_1:0" precision="I32" />
			</output>
		</layer>
		<layer id="56" name="sub/x" type="Const" version="opset1">
			<data element_type="i32" offset="923966" shape="" size="4" />
			<output>
				<port id="0" names="sub/x:0" precision="I32" />
			</output>
		</layer>
		<layer id="57" name="sub" type="Subtract" version="opset1">
			<data auto_broadcast="numpy" />
			<input>
				<port id="0" />
				<port id="1" />
			</input>
			<output>
				<port id="2" names="sub:0" precision="I32" />
			</output>
		</layer>
		<layer id="58" name="Maximum/y" type="Const" version="opset1">
			<data element_type="i32" offset="923962" shape="" size="4" />
			<output>
				<port id="0" names="Maximum/y:0" precision="I32" />
			</output>
		</layer>
		<layer id="59" name="Maximum" type="Maximum" version="opset1">
			<data auto_broadcast="numpy" />
			<input>
				<port id="0" />
				<port id="1" />
			</input>
			<output>
				<port id="2" names="Maximum:0" precision="I32" />
			</output>
		</layer>
		<layer id="60" name="add" type="Add" version="opset1">
			<data auto_broadcast="numpy" />
			<input>
				<port id="0" />
				<port id="1" />
			</input>
			<output>
				<port id="2" names="add:0" precision="I32" />
			</output>
		</layer>
		<layer id="61" name="pad_to_bounding_box/sub_3/y" type="Const" version="opset1">
			<data element_type="i32" offset="923962" shape="" size="4" />
			<output>
				<port id="0" names="pad_to_bounding_box/sub_3/y:0" precision="I32" />
			</output>
		</layer>
		<layer id="62" name="pad_to_bounding_box/sub_3" type="Subtract" version="opset1">
			<data auto_broadcast="numpy" />
			<input>
				<port id="0" />
				<port id="1" />
			</input>
			<output>
				<port id="2" names="pad_to_bounding_box/sub_3:0" precision="I32" />
			</output>
		</layer>
		<layer id="63" name="pad_to_bounding_box/unstack/Squeeze_1043_input_port_1/value" type="Const" version="opset1">
			<data element_type="i64" offset="923954" shape="1" size="8" />
			<output>
				<port id="0" precision="I64">
					<dim>1</dim>
				</port>
			</output>
		</layer>
		<layer id="64" name="pad_to_bounding_box/unstack/Split_input_port_1/value" type="Const" version="opset1">
			<data element_type="i64" offset="923954" shape="" size="8" />
			<output>
				<port id="0" precision="I64" />
			</output>
		</layer>
		<layer id="65" name="pad_to_bounding_box/Shape" type="ShapeOf" version="opset3">
			<data output_type="i32" />
			<input>
				<port id="0">
					<dim>1</dim>
					<dim>3</dim>
					<dim>240</dim>
					<dim>240</dim>
				</port>
			</input>
			<output>
				<port id="1" precision="I32">
					<dim>4</dim>
				</port>
			</output>
		</layer>
		<layer id="66" name="pad_to_bounding_box/Shape/GatherNCHWtoNHWC_input_port_1/value2188631513" type="Const" version="opset1">
			<data element_type="i32" offset="923970" shape="4" size="16" />
			<output>
				<port id="0" precision="I32">
					<dim>4</dim>
				</port>
			</output>
		</layer>
		<layer id="67" name="pad_to_bounding_box/Shape/GatherNCHWtoNHWC_input_port_2/value2188831207" type="Const" version="opset1">
			<data element_type="i64" offset="923954" shape="" size="8" />
			<output>
				<port id="0" precision="I64" />
			</output>
		</layer>
		<layer id="68" name="pad_to_bounding_box/Shape/GatherNCHWtoNHWC" type="Gather" version="opset7">
			<data batch_dims="0" />
			<input>
				<port id="0">
					<dim>4</dim>
				</port>
				<port id="1">
					<dim>4</dim>
				</port>
				<port id="2" />
			</input>
			<output>
				<port id="3" names="pad_to_bounding_box/Shape:0" precision="I32">
					<dim>4</dim>
				</port>
			</output>
		</layer>
		<layer id="69" name="pad_to_bounding_box/unstack/Split" type="Split" version="opset1">
			<data num_splits="4" />
			<input>
				<port id="0">
					<dim>4</dim>
				</port>
				<port id="1" />
			</input>
			<output>
				<port id="2" precision="I32">
					<dim>1</dim>
				</port>
				<port id="3" precision="I32">
					<dim>1</dim>
				</port>
				<port id="4" precision="I32">
					<dim>1</dim>
				</port>
				<port id="5" precision="I32">
					<dim>1</dim>
				</port>
			</output>
		</layer>
		<layer id="70" name="pad_to_bounding_box/unstack/Squeeze_1043" type="Squeeze" version="opset1">
			<input>
				<port id="0">
					<dim>1</dim>
				</port>
				<port id="1">
					<dim>1</dim>
				</port>
			</input>
			<output>
				<port id="2" names="pad_to_bounding_box/unstack:1" precision="I32" />
			</output>
		</layer>
		<layer id="71" name="pad_to_bounding_box/sub_4" type="Subtract" version="opset1">
			<data auto_broadcast="numpy" />
			<input>
				<port id="0" />
				<port id="1" />
			</input>
			<output>
				<port id="2" names="pad_to_bounding_box/sub_4:0" precision="I32" />
			</output>
		</layer>
		<layer id="72" name="pad_to_bounding_box/stack_1/Unsqueeze1091_input_port_1/value" type="Const" version="opset1">
			<data element_type="i64" offset="923954" shape="1" size="8" />
			<output>
				<port id="0" precision="I64">
					<dim>1</dim>
				</port>
			</output>
		</layer>
		<layer id="73" name="pad_to_bounding_box/stack_1/Unsqueeze1091" type="Unsqueeze" version="opset1">
			<input>
				<port id="0" />
				<port id="1">
					<dim>1</dim>
				</port>
			</input>
			<output>
				<port id="2" precision="I32">
					<dim>1</dim>
				</port>
			</output>
		</layer>
		<layer id="74" name="pad_to_bounding_box/stack_1" type="Concat" version="opset1">
			<data axis="0" />
			<input>
				<port id="0">
					<dim>1</dim>
				</port>
				<port id="1">
					<dim>1</dim>
				</port>
			</input>
			<output>
				<port id="2" names="pad_to_bounding_box/stack_1:0" precision="I32">
					<dim>2</dim>
				</port>
			</output>
		</layer>
		<layer id="75" name="pad_to_bounding_box/stack_4/Unsqueeze1082" type="Unsqueeze" version="opset1">
			<input>
				<port id="0">
					<dim>2</dim>
				</port>
				<port id="1">
					<dim>1</dim>
				</port>
			</input>
			<output>
				<port id="2" precision="I32">
					<dim>1</dim>
					<dim>2</dim>
				</port>
			</output>
		</layer>
		<layer id="76" name="pad_to_bounding_box/stack_2/Unsqueeze" type="Const" version="opset1">
			<data element_type="i32" offset="923962" shape="1" size="4" />
			<output>
				<port id="0" precision="I32">
					<dim>1</dim>
				</port>
			</output>
		</layer>
		<layer id="77" name="strided_slice_2/stack" type="Const" version="opset1">
			<data element_type="i64" offset="923874" shape="1" size="8" />
			<output>
				<port id="0" names="strided_slice_2/stack:0" precision="I64">
					<dim>1</dim>
				</port>
			</output>
		</layer>
		<layer id="78" name="strided_slice_2/stack_1" type="Const" version="opset1">
			<data element_type="i64" offset="923986" shape="1" size="8" />
			<output>
				<port id="0" names="strided_slice_2/stack_1:0" precision="I64">
					<dim>1</dim>
				</port>
			</output>
		</layer>
		<layer id="79" name="strided_slice_2/stack_2" type="Const" version="opset1">
			<data element_type="i64" offset="923874" shape="1" size="8" />
			<output>
				<port id="0" names="strided_slice_2/stack_2:0" precision="I64">
					<dim>1</dim>
				</port>
			</output>
		</layer>
		<layer id="80" name="strided_slice_2" type="StridedSlice" version="opset1">
			<data begin_mask="0" ellipsis_mask="0" end_mask="0" new_axis_mask="0" shrink_axis_mask="1" />
			<input>
				<port id="0">
					<dim>3</dim>
				</port>
				<port id="1">
					<dim>1</dim>
				</port>
				<port id="2">
					<dim>1</dim>
				</port>
				<port id="3">
					<dim>1</dim>
				</port>
			</input>
			<output>
				<port id="4" names="strided_slice_2:0" precision="I32" />
			</output>
		</layer>
		<layer id="81" name="sub_1/x" type="Const" version="opset1">
			<data element_type="i32" offset="923966" shape="" size="4" />
			<output>
				<port id="0" names="sub_1/x:0" precision="I32" />
			</output>
		</layer>
		<layer id="82" name="sub_1" type="Subtract" version="opset1">
			<data auto_broadcast="numpy" />
			<input>
				<port id="0" />
				<port id="1" />
			</input>
			<output>
				<port id="2" names="sub_1:0" precision="I32" />
			</output>
		</layer>
		<layer id="83" name="Maximum_1/y" type="Const" version="opset1">
			<data element_type="i32" offset="923962" shape="" size="4" />
			<output>
				<port id="0" names="Maximum_1/y:0" precision="I32" />
			</output>
		</layer>
		<layer id="84" name="Maximum_1" type="Maximum" version="opset1">
			<data auto_broadcast="numpy" />
			<input>
				<port id="0" />
				<port id="1" />
			</input>
			<output>
				<port id="2" names="Maximum_1:0" precision="I32" />
			</output>
		</layer>
		<layer id="85" name="add_1" type="Add" version="opset1">
			<data auto_broadcast="numpy" />
			<input>
				<port id="0" />
				<port id="1" />
			</input>
			<output>
				<port id="2" names="add_1:0" precision="I32" />
			</output>
		</layer>
		<layer id="86" name="pad_to_bounding_box/sub_1/y" type="Const" version="opset1">
			<data element_type="i32" offset="923962" shape="" size="4" />
			<output>
				<port id="0" names="pad_to_bounding_box/sub_1/y:0" precision="I32" />
			</output>
		</layer>
		<layer id="87" name="pad_to_bounding_box/sub_1" type="Subtract" version="opset1">
			<data auto_broadcast="numpy" />
			<input>
				<port id="0" />
				<port id="1" />
			</input>
			<output>
				<port id="2" names="pad_to_bounding_box/sub_1:0" precision="I32" />
			</output>
		</layer>
		<layer id="88" name="pad_to_bounding_box/unstack/Squeeze_1045_input_port_1/value" type="Const" version="opset1">
			<data element_type="i64" offset="923954" shape="1" size="8" />
			<output>
				<port id="0" precision="I64">
					<dim>1</dim>
				</port>
			</output>
		</layer>
		<layer id="89" name="pad_to_bounding_box/unstack/Squeeze_1045" type="Squeeze" version="opset1">
			<input>
				<port id="0">
					<dim>1</dim>
				</port>
				<port id="1">
					<dim>1</dim>
				</port>
			</input>
			<output>
				<port id="2" names="pad_to_bounding_box/unstack:2" precision="I32" />
			</output>
		</layer>
		<layer id="90" name="pad_to_bounding_box/sub_2" type="Subtract" version="opset1">
			<data auto_broadcast="numpy" />
			<input>
				<port id="0" />
				<port id="1" />
			</input>
			<output>
				<port id="2" names="pad_to_bounding_box/sub_2:0" precision="I32" />
			</output>
		</layer>
		<layer id="91" name="pad_to_bounding_box/stack_2/Unsqueeze1077_input_port_1/value" type="Const" version="opset1">
			<data element_type="i64" offset="923954" shape="1" size="8" />
			<output>
				<port id="0" precision="I64">
					<dim>1</dim>
				</port>
			</output>
		</layer>
		<layer id="92" name="pad_to_bounding_box/stack_2/Unsqueeze1077" type="Unsqueeze" version="opset1">
			<input>
				<port id="0" />
				<port id="1">
					<dim>1</dim>
				</port>
			</input>
			<output>
				<port id="2" precision="I32">
					<dim>1</dim>
				</port>
			</output>
		</layer>
		<layer id="93" name="pad_to_bounding_box/stack_2" type="Concat" version="opset1">
			<data axis="0" />
			<input>
				<port id="0">
					<dim>1</dim>
				</port>
				<port id="1">
					<dim>1</dim>
				</port>
			</input>
			<output>
				<port id="2" names="pad_to_bounding_box/stack_2:0" precision="I32">
					<dim>2</dim>
				</port>
			</output>
		</layer>
		<layer id="94" name="pad_to_bounding_box/stack_4/Unsqueeze1084_input_port_1/value" type="Const" version="opset1">
			<data element_type="i64" offset="923954" shape="1" size="8" />
			<output>
				<port id="0" precision="I64">
					<dim>1</dim>
				</port>
			</output>
		</layer>
		<layer id="95" name="pad_to_bounding_box/stack_4/Unsqueeze1084" type="Unsqueeze" version="opset1">
			<input>
				<port id="0">
					<dim>2</dim>
				</port>
				<port id="1">
					<dim>1</dim>
				</port>
			</input>
			<output>
				<port id="2" precision="I32">
					<dim>1</dim>
					<dim>2</dim>
				</port>
			</output>
		</layer>
		<layer id="96" name="pad_to_bounding_box/stack_4/Unsqueeze1086" type="Const" version="opset1">
			<data element_type="i32" offset="923994" shape="1,2" size="8" />
			<output>
				<port id="0" precision="I32">
					<dim>1</dim>
					<dim>2</dim>
				</port>
			</output>
		</layer>
		<layer id="97" name="pad_to_bounding_box/stack_4" type="Concat" version="opset1">
			<data axis="0" />
			<input>
				<port id="0">
					<dim>1</dim>
					<dim>2</dim>
				</port>
				<port id="1">
					<dim>1</dim>
					<dim>2</dim>
				</port>
				<port id="2">
					<dim>1</dim>
					<dim>2</dim>
				</port>
				<port id="3">
					<dim>1</dim>
					<dim>2</dim>
				</port>
			</input>
			<output>
				<port id="4" names="pad_to_bounding_box/stack_4:0" precision="I32">
					<dim>4</dim>
					<dim>2</dim>
				</port>
			</output>
		</layer>
		<layer id="98" name="1052_input_port_1/value" type="Const" version="opset1">
			<data element_type="i64" offset="924002" shape="2" size="16" />
			<output>
				<port id="0" precision="I64">
					<dim>2</dim>
				</port>
			</output>
		</layer>
		<layer id="99" name="1052" type="Transpose" version="opset1">
			<input>
				<port id="0">
					<dim>4</dim>
					<dim>2</dim>
				</port>
				<port id="1">
					<dim>2</dim>
				</port>
			</input>
			<output>
				<port id="2" precision="I32">
					<dim>2</dim>
					<dim>4</dim>
				</port>
			</output>
		</layer>
		<layer id="100" name="1054_input_port_1/value" type="Const" version="opset1">
			<data element_type="i64" offset="924018" shape="" size="8" />
			<output>
				<port id="0" precision="I64" />
			</output>
		</layer>
		<layer id="101" name="1054" type="Split" version="opset1">
			<data num_splits="2" />
			<input>
				<port id="0">
					<dim>2</dim>
					<dim>4</dim>
				</port>
				<port id="1" />
			</input>
			<output>
				<port id="2" precision="I32">
					<dim>1</dim>
					<dim>4</dim>
				</port>
				<port id="3" precision="I32">
					<dim>1</dim>
					<dim>4</dim>
				</port>
			</output>
		</layer>
		<layer id="102" name="1056_input_port_1/value" type="Const" version="opset1">
			<data element_type="i64" offset="924018" shape="1" size="8" />
			<output>
				<port id="0" precision="I64">
					<dim>1</dim>
				</port>
			</output>
		</layer>
		<layer id="103" name="1056" type="Squeeze" version="opset1">
			<input>
				<port id="0">
					<dim>1</dim>
					<dim>4</dim>
				</port>
				<port id="1">
					<dim>1</dim>
				</port>
			</input>
			<output>
				<port id="2" precision="I32">
					<dim>4</dim>
				</port>
			</output>
		</layer>
		<layer id="104" name="pad_to_bounding_box/Pad/GatherNHWCtoNCHW21926_input_port_1/value2192831399" type="Const" version="opset1">
			<data element_type="i32" offset="924026" shape="4" size="16" />
			<output>
				<port id="0" precision="I32">
					<dim>4</dim>
				</port>
			</output>
		</layer>
		<layer id="105" name="pad_to_bounding_box/Pad/GatherNHWCtoNCHW21926_input_port_2/value2193031294" type="Const" version="opset1">
			<data element_type="i64" offset="924018" shape="" size="8" />
			<output>
				<port id="0" precision="I64" />
			</output>
		</layer>
		<layer id="106" name="pad_to_bounding_box/Pad/GatherNHWCtoNCHW21926" type="Gather" version="opset7">
			<data batch_dims="0" />
			<input>
				<port id="0">
					<dim>4</dim>
				</port>
				<port id="1">
					<dim>4</dim>
				</port>
				<port id="2" />
			</input>
			<output>
				<port id="3" precision="I32">
					<dim>4</dim>
				</port>
			</output>
		</layer>
		<layer id="107" name="pad_to_bounding_box/Pad/Cast_1" type="Convert" version="opset1">
			<data destination_type="i64" />
			<input>
				<port id="0">
					<dim>4</dim>
				</port>
			</input>
			<output>
				<port id="1" precision="I64">
					<dim>4</dim>
				</port>
			</output>
		</layer>
		<layer id="108" name="1058_input_port_1/value" type="Const" version="opset1">
			<data element_type="i64" offset="924018" shape="1" size="8" />
			<output>
				<port id="0" precision="I64">
					<dim>1</dim>
				</port>
			</output>
		</layer>
		<layer id="109" name="1058" type="Squeeze" version="opset1">
			<input>
				<port id="0">
					<dim>1</dim>
					<dim>4</dim>
				</port>
				<port id="1">
					<dim>1</dim>
				</port>
			</input>
			<output>
				<port id="2" precision="I32">
					<dim>4</dim>
				</port>
			</output>
		</layer>
		<layer id="110" name="pad_to_bounding_box/Pad/GatherNHWCtoNCHW_input_port_1/value2192231363" type="Const" version="opset1">
			<data element_type="i32" offset="924026" shape="4" size="16" />
			<output>
				<port id="0" precision="I32">
					<dim>4</dim>
				</port>
			</output>
		</layer>
		<layer id="111" name="pad_to_bounding_box/Pad/GatherNHWCtoNCHW_input_port_2/value2192431189" type="Const" version="opset1">
			<data element_type="i64" offset="924018" shape="" size="8" />
			<output>
				<port id="0" precision="I64" />
			</output>
		</layer>
		<layer id="112" name="pad_to_bounding_box/Pad/GatherNHWCtoNCHW" type="Gather" version="opset7">
			<data batch_dims="0" />
			<input>
				<port id="0">
					<dim>4</dim>
				</port>
				<port id="1">
					<dim>4</dim>
				</port>
				<port id="2" />
			</input>
			<output>
				<port id="3" precision="I32">
					<dim>4</dim>
				</port>
			</output>
		</layer>
		<layer id="113" name="pad_to_bounding_box/Pad/Cast_2" type="Convert" version="opset1">
			<data destination_type="i64" />
			<input>
				<port id="0">
					<dim>4</dim>
				</port>
			</input>
			<output>
				<port id="1" precision="I64">
					<dim>4</dim>
				</port>
			</output>
		</layer>
		<layer id="114" name="pad_to_bounding_box/Pad" type="Pad" version="opset1">
			<data pad_mode="constant" />
			<input>
				<port id="0">
					<dim>1</dim>
					<dim>3</dim>
					<dim>240</dim>
					<dim>240</dim>
				</port>
				<port id="1">
					<dim>4</dim>
				</port>
				<port id="2">
					<dim>4</dim>
				</port>
				<port id="3" />
			</input>
			<output>
				<port id="4" precision="FP16">
					<dim>1</dim>
					<dim>3</dim>
					<dim>240</dim>
					<dim>240</dim>
				</port>
			</output>
		</layer>
		<layer id="115" name="pad_to_bounding_box/Pad/Transpose/value2157631222" type="Const" version="opset1">
			<data element_type="i64" offset="923882" shape="4" size="32" />
			<output>
				<port id="0" precision="I64">
					<dim>4</dim>
				</port>
			</output>
		</layer>
		<layer id="116" name="pad_to_bounding_box/Pad/Transpose" type="Transpose" version="opset1">
			<input>
				<port id="0">
					<dim>1</dim>
					<dim>3</dim>
					<dim>240</dim>
					<dim>240</dim>
				</port>
				<port id="1">
					<dim>4</dim>
				</port>
			</input>
			<output>
				<port id="2" names="pad_to_bounding_box/Pad:0" precision="FP16">
					<dim>1</dim>
					<dim>240</dim>
					<dim>240</dim>
					<dim>3</dim>
				</port>
			</output>
		</layer>
		<layer id="117" name="pad_to_bounding_box/Squeeze" type="Squeeze" version="opset1">
			<input>
				<port id="0">
					<dim>1</dim>
					<dim>240</dim>
					<dim>240</dim>
					<dim>3</dim>
				</port>
				<port id="1">
					<dim>1</dim>
				</port>
			</input>
			<output>
				<port id="2" names="pad_to_bounding_box/Squeeze:0" precision="FP16">
					<dim>240</dim>
					<dim>240</dim>
					<dim>3</dim>
				</port>
			</output>
		</layer>
		<layer id="118" name="Reshape31231" type="Const" version="opset1">
			<data element_type="f16" offset="924042" shape="1,1,3" size="6" />
			<output>
				<port id="0" names="Reshape:0" precision="FP16">
					<dim>1</dim>
					<dim>1</dim>
					<dim>3</dim>
				</port>
			</output>
		</layer>
		<layer id="119" name="pad_to_bounding_box/add" type="Add" version="opset1">
			<data auto_broadcast="numpy" />
			<input>
				<port id="0">
					<dim>240</dim>
					<dim>240</dim>
					<dim>3</dim>
				</port>
				<port id="1">
					<dim>1</dim>
					<dim>1</dim>
					<dim>3</dim>
				</port>
			</input>
			<output>
				<port id="2" names="pad_to_bounding_box/add:0" precision="FP16">
					<dim>240</dim>
					<dim>240</dim>
					<dim>3</dim>
				</port>
			</output>
		</layer>
		<layer id="120" name="ExpandDims/dim" type="Const" version="opset1">
			<data element_type="i64" offset="924018" shape="1" size="8" />
			<output>
				<port id="0" names="ExpandDims/dim:0" precision="I64">
					<dim>1</dim>
				</port>
			</output>
		</layer>
		<layer id="121" name="ExpandDims" type="Unsqueeze" version="opset1">
			<input>
				<port id="0">
					<dim>240</dim>
					<dim>240</dim>
					<dim>3</dim>
				</port>
				<port id="1">
					<dim>1</dim>
				</port>
			</input>
			<output>
				<port id="2" precision="FP16">
					<dim>1</dim>
					<dim>240</dim>
					<dim>240</dim>
					<dim>3</dim>
				</port>
			</output>
		</layer>
		<layer id="122" name="ExpandDims/Transpose/value2159231108" type="Const" version="opset1">
			<data element_type="i64" offset="923914" shape="4" size="32" />
			<output>
				<port id="0" precision="I64">
					<dim>4</dim>
				</port>
			</output>
		</layer>
		<layer id="123" name="ExpandDims/Transpose" type="Transpose" version="opset1">
			<input>
				<port id="0">
					<dim>1</dim>
					<dim>240</dim>
					<dim>240</dim>
					<dim>3</dim>
				</port>
				<port id="1">
					<dim>4</dim>
				</port>
			</input>
			<output>
				<port id="2" names="ExpandDims:0" precision="FP16">
					<dim>1</dim>
					<dim>3</dim>
					<dim>240</dim>
					<dim>240</dim>
				</port>
			</output>
		</layer>
		<layer id="124" name="mul" type="Multiply" version="opset1">
			<data auto_broadcast="numpy" />
			<input>
				<port id="0">
					<dim>1</dim>
					<dim>1</dim>
					<dim>1</dim>
					<dim>1</dim>
				</port>
				<port id="1">
					<dim>1</dim>
					<dim>3</dim>
					<dim>240</dim>
					<dim>240</dim>
				</port>
			</input>
			<output>
				<port id="2" names="mul:0" precision="FP16">
					<dim>1</dim>
					<dim>3</dim>
					<dim>240</dim>
					<dim>240</dim>
				</port>
			</output>
		</layer>
		<layer id="125" name="sub_2/y" type="Const" version="opset1">
			<data element_type="f16" offset="924048" shape="1,1,1,1" size="2" />
			<output>
				<port id="0" names="sub_2/y:0" precision="FP16">
					<dim>1</dim>
					<dim>1</dim>
					<dim>1</dim>
					<dim>1</dim>
				</port>
			</output>
		</layer>
		<layer id="126" name="sub_2" type="Add" version="opset1">
			<data auto_broadcast="numpy" />
			<input>
				<port id="0">
					<dim>1</dim>
					<dim>3</dim>
					<dim>240</dim>
					<dim>240</dim>
				</port>
				<port id="1">
					<dim>1</dim>
					<dim>1</dim>
					<dim>1</dim>
					<dim>1</dim>
				</port>
			</input>
			<output>
				<port id="2" names="MobilenetV2/MobilenetV2/input:0,sub_2:0" precision="FP16">
					<dim>1</dim>
					<dim>3</dim>
					<dim>240</dim>
					<dim>240</dim>
				</port>
			</output>
		</layer>
		<layer id="127" name="MobilenetV2/Conv/BatchNorm/FusedBatchNormV3/mean/Fused_Mul__copy" type="Const" version="opset1">
			<data element_type="f16" offset="924050" shape="32,3,3,3" size="1728" />
			<output>
				<port id="0" names="MobilenetV2/Conv/weights/read:0" precision="FP16">
					<dim>32</dim>
					<dim>3</dim>
					<dim>3</dim>
					<dim>3</dim>
				</port>
			</output>
		</layer>
		<layer id="128" name="MobilenetV2/Conv/Conv2D" type="Convolution" version="opset1">
			<data auto_pad="same_upper" dilations="1,1" pads_begin="0,0" pads_end="0,0" strides="2,2" />
			<input>
				<port id="0">
					<dim>1</dim>
					<dim>3</dim>
					<dim>240</dim>
					<dim>240</dim>
				</port>
				<port id="1">
					<dim>32</dim>
					<dim>3</dim>
					<dim>3</dim>
					<dim>3</dim>
				</port>
			</input>
			<output>
				<port id="2" precision="FP16">
					<dim>1</dim>
					<dim>32</dim>
					<dim>120</dim>
					<dim>120</dim>
				</port>
			</output>
		</layer>
		<layer id="129" name="MobilenetV2/Conv/BatchNorm/FusedBatchNormV3/variance/Fused_Add_" type="Add" version="opset1">
			<data auto_broadcast="numpy" />
			<input>
				<port id="0">
					<dim>1</dim>
					<dim>32</dim>
					<dim>120</dim>
					<dim>120</dim>
				</port>
				<port id="1">
					<dim>1</dim>
					<dim>32</dim>
					<dim>1</dim>
					<dim>1</dim>
				</port>
			</input>
			<output>
				<port id="2" names="MobilenetV2/Conv/BatchNorm/FusedBatchNormV3:0" precision="FP16">
					<dim>1</dim>
					<dim>32</dim>
					<dim>120</dim>
					<dim>120</dim>
				</port>
			</output>
		</layer>
		<layer id="130" name="MobilenetV2/Conv/Relu6" type="Clamp" version="opset1">
			<data max="6.0" min="0.0" />
			<input>
				<port id="0">
					<dim>1</dim>
					<dim>32</dim>
					<dim>120</dim>
					<dim>120</dim>
				</port>
			</input>
			<output>
				<port id="1" names="MobilenetV2/Conv/Relu6:0,MobilenetV2/expanded_conv/input:0" precision="FP16">
					<dim>1</dim>
					<dim>32</dim>
					<dim>120</dim>
					<dim>120</dim>
				</port>
			</output>
		</layer>
		<layer id="131" name="MobilenetV2/expanded_conv/depthwise/BatchNorm/FusedBatchNormV3/mean/Fused_Mul__copy" type="Const" version="opset1">
			<data element_type="f16" offset="925778" shape="32,1,1,3,3" size="576" />
			<output>
				<port id="0" names="MobilenetV2/expanded_conv/depthwise/depthwise_weights/read:0" precision="FP16">
					<dim>32</dim>
					<dim>1</dim>
					<dim>1</dim>
					<dim>3</dim>
					<dim>3</dim>
				</port>
			</output>
		</layer>
		<layer id="132" name="MobilenetV2/expanded_conv/depthwise/depthwise" type="GroupConvolution" version="opset1">
			<data auto_pad="same_upper" dilations="1,1" pads_begin="0,0" pads_end="0,0" strides="1,1" />
			<input>
				<port id="0">
					<dim>1</dim>
					<dim>32</dim>
					<dim>120</dim>
					<dim>120</dim>
				</port>
				<port id="1">
					<dim>32</dim>
					<dim>1</dim>
					<dim>1</dim>
					<dim>3</dim>
					<dim>3</dim>
				</port>
			</input>
			<output>
				<port id="2" precision="FP16">
					<dim>1</dim>
					<dim>32</dim>
					<dim>120</dim>
					<dim>120</dim>
				</port>
			</output>
		</layer>
		<layer id="133" name="MobilenetV2/expanded_conv/depthwise/BatchNorm/FusedBatchNormV3/variance/Fused_Add_" type="Add" version="opset1">
			<data auto_broadcast="numpy" />
			<input>
				<port id="0">
					<dim>1</dim>
					<dim>32</dim>
					<dim>120</dim>
					<dim>120</dim>
				</port>
				<port id="1">
					<dim>1</dim>
					<dim>32</dim>
					<dim>1</dim>
					<dim>1</dim>
				</port>
			</input>
			<output>
				<port id="2" names="MobilenetV2/expanded_conv/depthwise/BatchNorm/FusedBatchNormV3:0" precision="FP16">
					<dim>1</dim>
					<dim>32</dim>
					<dim>120</dim>
					<dim>120</dim>
				</port>
			</output>
		</layer>
		<layer id="134" name="MobilenetV2/expanded_conv/depthwise/Relu6" type="Clamp" version="opset1">
			<data max="6.0" min="0.0" />
			<input>
				<port id="0">
					<dim>1</dim>
					<dim>32</dim>
					<dim>120</dim>
					<dim>120</dim>
				</port>
			</input>
			<output>
				<port id="1" names="MobilenetV2/expanded_conv/depthwise/Relu6:0,MobilenetV2/expanded_conv/depthwise_output:0" precision="FP16">
					<dim>1</dim>
					<dim>32</dim>
					<dim>120</dim>
					<dim>120</dim>
				</port>
			</output>
		</layer>
		<layer id="135" name="MobilenetV2/expanded_conv/project/Conv2D" type="Convolution" version="opset1">
			<data auto_pad="same_upper" dilations="1,1" pads_begin="0,0" pads_end="0,0" strides="1,1" />
			<input>
				<port id="0">
					<dim>1</dim>
					<dim>32</dim>
					<dim>120</dim>
					<dim>120</dim>
				</port>
				<port id="1">
					<dim>16</dim>
					<dim>32</dim>
					<dim>1</dim>
					<dim>1</dim>
				</port>
			</input>
			<output>
				<port id="2" precision="FP16">
					<dim>1</dim>
					<dim>16</dim>
					<dim>120</dim>
					<dim>120</dim>
				</port>
			</output>
		</layer>
		<layer id="136" name="MobilenetV2/expanded_conv/project/BatchNorm/FusedBatchNormV3/variance/Fused_Add_" type="Add" version="opset1">
			<data auto_broadcast="numpy" />
			<input>
				<port id="0">
					<dim>1</dim>
					<dim>16</dim>
					<dim>120</dim>
					<dim>120</dim>
				</port>
				<port id="1">
					<dim>1</dim>
					<dim>16</dim>
					<dim>1</dim>
					<dim>1</dim>
				</port>
			</input>
			<output>
				<port id="2" names="MobilenetV2/expanded_conv/output:0,MobilenetV2/expanded_conv/project/BatchNorm/FusedBatchNormV3:0,MobilenetV2/expanded_conv/project/Identity:0,MobilenetV2/expanded_conv_1/input:0" precision="FP16">
					<dim>1</dim>
					<dim>16</dim>
					<dim>120</dim>
					<dim>120</dim>
				</port>
			</output>
		</layer>
		<layer id="137" name="MobilenetV2/expanded_conv_1/expand/BatchNorm/FusedBatchNormV3/mean/Fused_Mul__copy" type="Const" version="opset1">
			<data element_type="f16" offset="926354" shape="96,16,1,1" size="3072" />
			<output>
				<port id="0" names="MobilenetV2/expanded_conv_1/expand/weights/read:0" precision="FP16">
					<dim>96</dim>
					<dim>16</dim>
					<dim>1</dim>
					<dim>1</dim>
				</port>
			</output>
		</layer>
		<layer id="138" name="MobilenetV2/expanded_conv_1/expand/Conv2D" type="Convolution" version="opset1">
			<data auto_pad="same_upper" dilations="1,1" pads_begin="0,0" pads_end="0,0" strides="1,1" />
			<input>
				<port id="0">
					<dim>1</dim>
					<dim>16</dim>
					<dim>120</dim>
					<dim>120</dim>
				</port>
				<port id="1">
					<dim>96</dim>
					<dim>16</dim>
					<dim>1</dim>
					<dim>1</dim>
				</port>
			</input>
			<output>
				<port id="2" precision="FP16">
					<dim>1</dim>
					<dim>96</dim>
					<dim>120</dim>
					<dim>120</dim>
				</port>
			</output>
		</layer>
		<layer id="139" name="MobilenetV2/expanded_conv_1/expand/BatchNorm/FusedBatchNormV3/variance/Fused_Add_" type="Add" version="opset1">
			<data auto_broadcast="numpy" />
			<input>
				<port id="0">
					<dim>1</dim>
					<dim>96</dim>
					<dim>120</dim>
					<dim>120</dim>
				</port>
				<port id="1">
					<dim>1</dim>
					<dim>96</dim>
					<dim>1</dim>
					<dim>1</dim>
				</port>
			</input>
			<output>
				<port id="2" names="MobilenetV2/expanded_conv_1/expand/BatchNorm/FusedBatchNormV3:0" precision="FP16">
					<dim>1</dim>
					<dim>96</dim>
					<dim>120</dim>
					<dim>120</dim>
				</port>
			</output>
		</layer>
		<layer id="140" name="MobilenetV2/expanded_conv_1/expand/Relu6" type="Clamp" version="opset1">
			<data max="6.0" min="0.0" />
			<input>
				<port id="0">
					<dim>1</dim>
					<dim>96</dim>
					<dim>120</dim>
					<dim>120</dim>
				</port>
			</input>
			<output>
				<port id="1" names="MobilenetV2/expanded_conv_1/expand/Relu6:0,MobilenetV2/expanded_conv_1/expansion_output:0" precision="FP16">
					<dim>1</dim>
					<dim>96</dim>
					<dim>120</dim>
					<dim>120</dim>
				</port>
			</output>
		</layer>
		<layer id="141" name="MobilenetV2/expanded_conv_1/depthwise/BatchNorm/FusedBatchNormV3/mean/Fused_Mul__copy" type="Const" version="opset1">
			<data element_type="f16" offset="929426" shape="96,1,1,3,3" size="1728" />
			<output>
				<port id="0" names="MobilenetV2/expanded_conv_1/depthwise/depthwise_weights/read:0" precision="FP16">
					<dim>96</dim>
					<dim>1</dim>
					<dim>1</dim>
					<dim>3</dim>
					<dim>3</dim>
				</port>
			</output>
		</layer>
		<layer id="142" name="MobilenetV2/expanded_conv_1/depthwise/depthwise" type="GroupConvolution" version="opset1">
			<data auto_pad="same_upper" dilations="1,1" pads_begin="0,0" pads_end="0,0" strides="2,2" />
			<input>
				<port id="0">
					<dim>1</dim>
					<dim>96</dim>
					<dim>120</dim>
					<dim>120</dim>
				</port>
				<port id="1">
					<dim>96</dim>
					<dim>1</dim>
					<dim>1</dim>
					<dim>3</dim>
					<dim>3</dim>
				</port>
			</input>
			<output>
				<port id="2" precision="FP16">
					<dim>1</dim>
					<dim>96</dim>
					<dim>60</dim>
					<dim>60</dim>
				</port>
			</output>
		</layer>
		<layer id="143" name="MobilenetV2/expanded_conv_1/depthwise/BatchNorm/FusedBatchNormV3/variance/Fused_Add_" type="Add" version="opset1">
			<data auto_broadcast="numpy" />
			<input>
				<port id="0">
					<dim>1</dim>
					<dim>96</dim>
					<dim>60</dim>
					<dim>60</dim>
				</port>
				<port id="1">
					<dim>1</dim>
					<dim>96</dim>
					<dim>1</dim>
					<dim>1</dim>
				</port>
			</input>
			<output>
				<port id="2" names="MobilenetV2/expanded_conv_1/depthwise/BatchNorm/FusedBatchNormV3:0" precision="FP16">
					<dim>1</dim>
					<dim>96</dim>
					<dim>60</dim>
					<dim>60</dim>
				</port>
			</output>
		</layer>
		<layer id="144" name="MobilenetV2/expanded_conv_1/depthwise/Relu6" type="Clamp" version="opset1">
			<data max="6.0" min="0.0" />
			<input>
				<port id="0">
					<dim>1</dim>
					<dim>96</dim>
					<dim>60</dim>
					<dim>60</dim>
				</port>
			</input>
			<output>
				<port id="1" names="MobilenetV2/expanded_conv_1/depthwise/Relu6:0,MobilenetV2/expanded_conv_1/depthwise_output:0" precision="FP16">
					<dim>1</dim>
					<dim>96</dim>
					<dim>60</dim>
					<dim>60</dim>
				</port>
			</output>
		</layer>
		<layer id="145" name="MobilenetV2/expanded_conv_1/project/Conv2D" type="Convolution" version="opset1">
			<data auto_pad="same_upper" dilations="1,1" pads_begin="0,0" pads_end="0,0" strides="1,1" />
			<input>
				<port id="0">
					<dim>1</dim>
					<dim>96</dim>
					<dim>60</dim>
					<dim>60</dim>
				</port>
				<port id="1">
					<dim>24</dim>
					<dim>96</dim>
					<dim>1</dim>
					<dim>1</dim>
				</port>
			</input>
			<output>
				<port id="2" precision="FP16">
					<dim>1</dim>
					<dim>24</dim>
					<dim>60</dim>
					<dim>60</dim>
				</port>
			</output>
		</layer>
		<layer id="146" name="MobilenetV2/expanded_conv_1/project/BatchNorm/FusedBatchNormV3/variance/Fused_Add_" type="Add" version="opset1">
			<data auto_broadcast="numpy" />
			<input>
				<port id="0">
					<dim>1</dim>
					<dim>24</dim>
					<dim>60</dim>
					<dim>60</dim>
				</port>
				<port id="1">
					<dim>1</dim>
					<dim>24</dim>
					<dim>1</dim>
					<dim>1</dim>
				</port>
			</input>
			<output>
				<port id="2" names="MobilenetV2/expanded_conv_1/output:0,MobilenetV2/expanded_conv_1/project/BatchNorm/FusedBatchNormV3:0,MobilenetV2/expanded_conv_1/project/Identity:0,MobilenetV2/expanded_conv_2/input:0" precision="FP16">
					<dim>1</dim>
					<dim>24</dim>
					<dim>60</dim>
					<dim>60</dim>
				</port>
			</output>
		</layer>
		<layer id="147" name="data_add_1710517110" type="Const" version="opset1">
			<data element_type="f16" offset="931154" shape="1,24,1,1" size="48" />
			<output>
				<port id="0" precision="FP16">
					<dim>1</dim>
					<dim>24</dim>
					<dim>1</dim>
					<dim>1</dim>
				</port>
			</output>
		</layer>
		<layer id="148" name="MobilenetV2/expanded_conv_2/project/BatchNorm/FusedBatchNormV3/mean/Fused_Mul__copy" type="Const" version="opset1">
			<data element_type="f16" offset="931202" shape="24,144,1,1" size="6912" />
			<output>
				<port id="0" names="MobilenetV2/expanded_conv_2/project/weights/read:0" precision="FP16">
					<dim>24</dim>
					<dim>144</dim>
					<dim>1</dim>
					<dim>1</dim>
				</port>
			</output>
		</layer>
		<layer id="149" name="data_add_1709717102" type="Const" version="opset1">
			<data element_type="f16" offset="938114" shape="1,144,1,1" size="288" />
			<output>
				<port id="0" precision="FP16">
					<dim>1</dim>
					<dim>144</dim>
					<dim>1</dim>
					<dim>1</dim>
				</port>
			</output>
		</layer>
		<layer id="150" name="data_add_1708917094" type="Const" version="opset1">
			<data element_type="f16" offset="938402" shape="1,144,1,1" size="288" />
			<output>
				<port id="0" precision="FP16">
					<dim>1</dim>
					<dim>144</dim>
					<dim>1</dim>
					<dim>1</dim>
				</port>
			</output>
		</layer>
		<layer id="151" name="MobilenetV2/expanded_conv_2/expand/BatchNorm/FusedBatchNormV3/mean/Fused_Mul__copy" type="Const" version="opset1">
			<data element_type="f16" offset="938690" shape="144,24,1,1" size="6912" />
			<output>
				<port id="0" names="MobilenetV2/expanded_conv_2/expand/weights/read:0" precision="FP16">
					<dim>144</dim>
					<dim>24</dim>
					<dim>1</dim>
					<dim>1</dim>
				</port>
			</output>
		</layer>
		<layer id="152" name="MobilenetV2/expanded_conv_2/expand/Conv2D" type="Convolution" version="opset1">
			<data auto_pad="same_upper" dilations="1,1" pads_begin="0,0" pads_end="0,0" strides="1,1" />
			<input>
				<port id="0">
					<dim>1</dim>
					<dim>24</dim>
					<dim>60</dim>
					<dim>60</dim>
				</port>
				<port id="1">
					<dim>144</dim>
					<dim>24</dim>
					<dim>1</dim>
					<dim>1</dim>
				</port>
			</input>
			<output>
				<port id="2" precision="FP16">
					<dim>1</dim>
					<dim>144</dim>
					<dim>60</dim>
					<dim>60</dim>
				</port>
			</output>
		</layer>
		<layer id="153" name="MobilenetV2/expanded_conv_2/expand/BatchNorm/FusedBatchNormV3/variance/Fused_Add_" type="Add" version="opset1">
			<data auto_broadcast="numpy" />
			<input>
				<port id="0">
					<dim>1</dim>
					<dim>144</dim>
					<dim>60</dim>
					<dim>60</dim>
				</port>
				<port id="1">
					<dim>1</dim>
					<dim>144</dim>
					<dim>1</dim>
					<dim>1</dim>
				</port>
			</input>
			<output>
				<port id="2" names="MobilenetV2/expanded_conv_2/expand/BatchNorm/FusedBatchNormV3:0" precision="FP16">
					<dim>1</dim>
					<dim>144</dim>
					<dim>60</dim>
					<dim>60</dim>
				</port>
			</output>
		</layer>
		<layer id="154" name="MobilenetV2/expanded_conv_2/expand/Relu6" type="Clamp" version="opset1">
			<data max="6.0" min="0.0" />
			<input>
				<port id="0">
					<dim>1</dim>
					<dim>144</dim>
					<dim>60</dim>
					<dim>60</dim>
				</port>
			</input>
			<output>
				<port id="1" names="MobilenetV2/expanded_conv_2/expand/Relu6:0,MobilenetV2/expanded_conv_2/expansion_output:0" precision="FP16">
					<dim>1</dim>
					<dim>144</dim>
					<dim>60</dim>
					<dim>60</dim>
				</port>
			</output>
		</layer>
		<layer id="155" name="MobilenetV2/expanded_conv_2/depthwise/BatchNorm/FusedBatchNormV3/mean/Fused_Mul__copy" type="Const" version="opset1">
			<data element_type="f16" offset="945602" shape="144,1,1,3,3" size="2592" />
			<output>
				<port id="0" names="MobilenetV2/expanded_conv_2/depthwise/depthwise_weights/read:0" precision="FP16">
					<dim>144</dim>
					<dim>1</dim>
					<dim>1</dim>
					<dim>3</dim>
					<dim>3</dim>
				</port>
			</output>
		</layer>
		<layer id="156" name="MobilenetV2/expanded_conv_2/depthwise/depthwise" type="GroupConvolution" version="opset1">
			<data auto_pad="same_upper" dilations="1,1" pads_begin="0,0" pads_end="0,0" strides="1,1" />
			<input>
				<port id="0">
					<dim>1</dim>
					<dim>144</dim>
					<dim>60</dim>
					<dim>60</dim>
				</port>
				<port id="1">
					<dim>144</dim>
					<dim>1</dim>
					<dim>1</dim>
					<dim>3</dim>
					<dim>3</dim>
				</port>
			</input>
			<output>
				<port id="2" precision="FP16">
					<dim>1</dim>
					<dim>144</dim>
					<dim>60</dim>
					<dim>60</dim>
				</port>
			</output>
		</layer>
		<layer id="157" name="MobilenetV2/expanded_conv_2/depthwise/BatchNorm/FusedBatchNormV3/variance/Fused_Add_" type="Add" version="opset1">
			<data auto_broadcast="numpy" />
			<input>
				<port id="0">
					<dim>1</dim>
					<dim>144</dim>
					<dim>60</dim>
					<dim>60</dim>
				</port>
				<port id="1">
					<dim>1</dim>
					<dim>144</dim>
					<dim>1</dim>
					<dim>1</dim>
				</port>
			</input>
			<output>
				<port id="2" names="MobilenetV2/expanded_conv_2/depthwise/BatchNorm/FusedBatchNormV3:0" precision="FP16">
					<dim>1</dim>
					<dim>144</dim>
					<dim>60</dim>
					<dim>60</dim>
				</port>
			</output>
		</layer>
		<layer id="158" name="MobilenetV2/expanded_conv_2/depthwise/Relu6" type="Clamp" version="opset1">
			<data max="6.0" min="0.0" />
			<input>
				<port id="0">
					<dim>1</dim>
					<dim>144</dim>
					<dim>60</dim>
					<dim>60</dim>
				</port>
			</input>
			<output>
				<port id="1" names="MobilenetV2/expanded_conv_2/depthwise/Relu6:0,MobilenetV2/expanded_conv_2/depthwise_output:0" precision="FP16">
					<dim>1</dim>
					<dim>144</dim>
					<dim>60</dim>
					<dim>60</dim>
				</port>
			</output>
		</layer>
		<layer id="159" name="MobilenetV2/expanded_conv_2/project/Conv2D" type="Convolution" version="opset1">
			<data auto_pad="same_upper" dilations="1,1" pads_begin="0,0" pads_end="0,0" strides="1,1" />
			<input>
				<port id="0">
					<dim>1</dim>
					<dim>144</dim>
					<dim>60</dim>
					<dim>60</dim>
				</port>
				<port id="1">
					<dim>24</dim>
					<dim>144</dim>
					<dim>1</dim>
					<dim>1</dim>
				</port>
			</input>
			<output>
				<port id="2" precision="FP16">
					<dim>1</dim>
					<dim>24</dim>
					<dim>60</dim>
					<dim>60</dim>
				</port>
			</output>
		</layer>
		<layer id="160" name="MobilenetV2/expanded_conv_2/project/BatchNorm/FusedBatchNormV3/variance/Fused_Add_" type="Add" version="opset1">
			<data auto_broadcast="numpy" />
			<input>
				<port id="0">
					<dim>1</dim>
					<dim>24</dim>
					<dim>60</dim>
					<dim>60</dim>
				</port>
				<port id="1">
					<dim>1</dim>
					<dim>24</dim>
					<dim>1</dim>
					<dim>1</dim>
				</port>
			</input>
			<output>
				<port id="2" names="MobilenetV2/expanded_conv_2/project/BatchNorm/FusedBatchNormV3:0,MobilenetV2/expanded_conv_2/project/Identity:0" precision="FP16">
					<dim>1</dim>
					<dim>24</dim>
					<dim>60</dim>
					<dim>60</dim>
				</port>
			</output>
		</layer>
		<layer id="161" name="MobilenetV2/expanded_conv_2/add" type="Add" version="opset1">
			<data auto_broadcast="numpy" />
			<input>
				<port id="0">
					<dim>1</dim>
					<dim>24</dim>
					<dim>60</dim>
					<dim>60</dim>
				</port>
				<port id="1">
					<dim>1</dim>
					<dim>24</dim>
					<dim>60</dim>
					<dim>60</dim>
				</port>
			</input>
			<output>
				<port id="2" names="MobilenetV2/expanded_conv_2/add:0,MobilenetV2/expanded_conv_2/output:0,MobilenetV2/expanded_conv_3/input:0" precision="FP16">
					<dim>1</dim>
					<dim>24</dim>
					<dim>60</dim>
					<dim>60</dim>
				</port>
			</output>
		</layer>
		<layer id="162" name="MobilenetV2/expanded_conv_3/expand/BatchNorm/FusedBatchNormV3/mean/Fused_Mul__copy" type="Const" version="opset1">
			<data element_type="f16" offset="948194" shape="144,24,1,1" size="6912" />
			<output>
				<port id="0" names="MobilenetV2/expanded_conv_3/expand/weights/read:0" precision="FP16">
					<dim>144</dim>
					<dim>24</dim>
					<dim>1</dim>
					<dim>1</dim>
				</port>
			</output>
		</layer>
		<layer id="163" name="MobilenetV2/expanded_conv_3/expand/Conv2D" type="Convolution" version="opset1">
			<data auto_pad="same_upper" dilations="1,1" pads_begin="0,0" pads_end="0,0" strides="1,1" />
			<input>
				<port id="0">
					<dim>1</dim>
					<dim>24</dim>
					<dim>60</dim>
					<dim>60</dim>
				</port>
				<port id="1">
					<dim>144</dim>
					<dim>24</dim>
					<dim>1</dim>
					<dim>1</dim>
				</port>
			</input>
			<output>
				<port id="2" precision="FP16">
					<dim>1</dim>
					<dim>144</dim>
					<dim>60</dim>
					<dim>60</dim>
				</port>
			</output>
		</layer>
		<layer id="164" name="MobilenetV2/expanded_conv_3/expand/BatchNorm/FusedBatchNormV3/variance/Fused_Add_" type="Add" version="opset1">
			<data auto_broadcast="numpy" />
			<input>
				<port id="0">
					<dim>1</dim>
					<dim>144</dim>
					<dim>60</dim>
					<dim>60</dim>
				</port>
				<port id="1">
					<dim>1</dim>
					<dim>144</dim>
					<dim>1</dim>
					<dim>1</dim>
				</port>
			</input>
			<output>
				<port id="2" names="MobilenetV2/expanded_conv_3/expand/BatchNorm/FusedBatchNormV3:0" precision="FP16">
					<dim>1</dim>
					<dim>144</dim>
					<dim>60</dim>
					<dim>60</dim>
				</port>
			</output>
		</layer>
		<layer id="165" name="MobilenetV2/expanded_conv_3/expand/Relu6" type="Clamp" version="opset1">
			<data max="6.0" min="0.0" />
			<input>
				<port id="0">
					<dim>1</dim>
					<dim>144</dim>
					<dim>60</dim>
					<dim>60</dim>
				</port>
			</input>
			<output>
				<port id="1" names="MobilenetV2/expanded_conv_3/expand/Relu6:0,MobilenetV2/expanded_conv_3/expansion_output:0" precision="FP16">
					<dim>1</dim>
					<dim>144</dim>
					<dim>60</dim>
					<dim>60</dim>
				</port>
			</output>
		</layer>
		<layer id="166" name="MobilenetV2/expanded_conv_3/depthwise/BatchNorm/FusedBatchNormV3/mean/Fused_Mul__copy" type="Const" version="opset1">
			<data element_type="f16" offset="955106" shape="144,1,1,3,3" size="2592" />
			<output>
				<port id="0" names="MobilenetV2/expanded_conv_3/depthwise/depthwise_weights/read:0" precision="FP16">
					<dim>144</dim>
					<dim>1</dim>
					<dim>1</dim>
					<dim>3</dim>
					<dim>3</dim>
				</port>
			</output>
		</layer>
		<layer id="167" name="MobilenetV2/expanded_conv_3/depthwise/depthwise" type="GroupConvolution" version="opset1">
			<data auto_pad="same_upper" dilations="1,1" pads_begin="0,0" pads_end="0,0" strides="2,2" />
			<input>
				<port id="0">
					<dim>1</dim>
					<dim>144</dim>
					<dim>60</dim>
					<dim>60</dim>
				</port>
				<port id="1">
					<dim>144</dim>
					<dim>1</dim>
					<dim>1</dim>
					<dim>3</dim>
					<dim>3</dim>
				</port>
			</input>
			<output>
				<port id="2" precision="FP16">
					<dim>1</dim>
					<dim>144</dim>
					<dim>30</dim>
					<dim>30</dim>
				</port>
			</output>
		</layer>
		<layer id="168" name="MobilenetV2/expanded_conv_3/depthwise/BatchNorm/FusedBatchNormV3/variance/Fused_Add_" type="Add" version="opset1">
			<data auto_broadcast="numpy" />
			<input>
				<port id="0">
					<dim>1</dim>
					<dim>144</dim>
					<dim>30</dim>
					<dim>30</dim>
				</port>
				<port id="1">
					<dim>1</dim>
					<dim>144</dim>
					<dim>1</dim>
					<dim>1</dim>
				</port>
			</input>
			<output>
				<port id="2" names="MobilenetV2/expanded_conv_3/depthwise/BatchNorm/FusedBatchNormV3:0" precision="FP16">
					<dim>1</dim>
					<dim>144</dim>
					<dim>30</dim>
					<dim>30</dim>
				</port>
			</output>
		</layer>
		<layer id="169" name="MobilenetV2/expanded_conv_3/depthwise/Relu6" type="Clamp" version="opset1">
			<data max="6.0" min="0.0" />
			<input>
				<port id="0">
					<dim>1</dim>
					<dim>144</dim>
					<dim>30</dim>
					<dim>30</dim>
				</port>
			</input>
			<output>
				<port id="1" names="MobilenetV2/expanded_conv_3/depthwise/Relu6:0,MobilenetV2/expanded_conv_3/depthwise_output:0" precision="FP16">
					<dim>1</dim>
					<dim>144</dim>
					<dim>30</dim>
					<dim>30</dim>
				</port>
			</output>
		</layer>
		<layer id="170" name="MobilenetV2/expanded_conv_3/project/Conv2D" type="Convolution" version="opset1">
			<data auto_pad="same_upper" dilations="1,1" pads_begin="0,0" pads_end="0,0" strides="1,1" />
			<input>
				<port id="0">
					<dim>1</dim>
					<dim>144</dim>
					<dim>30</dim>
					<dim>30</dim>
				</port>
				<port id="1">
					<dim>32</dim>
					<dim>144</dim>
					<dim>1</dim>
					<dim>1</dim>
				</port>
			</input>
			<output>
				<port id="2" precision="FP16">
					<dim>1</dim>
					<dim>32</dim>
					<dim>30</dim>
					<dim>30</dim>
				</port>
			</output>
		</layer>
		<layer id="171" name="MobilenetV2/expanded_conv_3/project/BatchNorm/FusedBatchNormV3/variance/Fused_Add_" type="Add" version="opset1">
			<data auto_broadcast="numpy" />
			<input>
				<port id="0">
					<dim>1</dim>
					<dim>32</dim>
					<dim>30</dim>
					<dim>30</dim>
				</port>
				<port id="1">
					<dim>1</dim>
					<dim>32</dim>
					<dim>1</dim>
					<dim>1</dim>
				</port>
			</input>
			<output>
				<port id="2" names="MobilenetV2/expanded_conv_3/output:0,MobilenetV2/expanded_conv_3/project/BatchNorm/FusedBatchNormV3:0,MobilenetV2/expanded_conv_3/project/Identity:0,MobilenetV2/expanded_conv_4/input:0" precision="FP16">
					<dim>1</dim>
					<dim>32</dim>
					<dim>30</dim>
					<dim>30</dim>
				</port>
			</output>
		</layer>
		<layer id="172" name="data_add_1715317158" type="Const" version="opset1">
			<data element_type="f16" offset="957698" shape="1,32,1,1" size="64" />
			<output>
				<port id="0" precision="FP16">
					<dim>1</dim>
					<dim>32</dim>
					<dim>1</dim>
					<dim>1</dim>
				</port>
			</output>
		</layer>
		<layer id="173" name="MobilenetV2/expanded_conv_4/project/BatchNorm/FusedBatchNormV3/mean/Fused_Mul__copy" type="Const" version="opset1">
			<data element_type="f16" offset="957762" shape="32,192,1,1" size="12288" />
			<output>
				<port id="0" names="MobilenetV2/expanded_conv_4/project/weights/read:0" precision="FP16">
					<dim>32</dim>
					<dim>192</dim>
					<dim>1</dim>
					<dim>1</dim>
				</port>
			</output>
		</layer>
		<layer id="174" name="data_add_1714517150" type="Const" version="opset1">
			<data element_type="f16" offset="970050" shape="1,192,1,1" size="384" />
			<output>
				<port id="0" precision="FP16">
					<dim>1</dim>
					<dim>192</dim>
					<dim>1</dim>
					<dim>1</dim>
				</port>
			</output>
		</layer>
		<layer id="175" name="data_add_1713717142" type="Const" version="opset1">
			<data element_type="f16" offset="970434" shape="1,192,1,1" size="384" />
			<output>
				<port id="0" precision="FP16">
					<dim>1</dim>
					<dim>192</dim>
					<dim>1</dim>
					<dim>1</dim>
				</port>
			</output>
		</layer>
		<layer id="176" name="MobilenetV2/expanded_conv_4/expand/BatchNorm/FusedBatchNormV3/mean/Fused_Mul__copy" type="Const" version="opset1">
			<data element_type="f16" offset="970818" shape="192,32,1,1" size="12288" />
			<output>
				<port id="0" names="MobilenetV2/expanded_conv_4/expand/weights/read:0" precision="FP16">
					<dim>192</dim>
					<dim>32</dim>
					<dim>1</dim>
					<dim>1</dim>
				</port>
			</output>
		</layer>
		<layer id="177" name="MobilenetV2/expanded_conv_4/expand/Conv2D" type="Convolution" version="opset1">
			<data auto_pad="same_upper" dilations="1,1" pads_begin="0,0" pads_end="0,0" strides="1,1" />
			<input>
				<port id="0">
					<dim>1</dim>
					<dim>32</dim>
					<dim>30</dim>
					<dim>30</dim>
				</port>
				<port id="1">
					<dim>192</dim>
					<dim>32</dim>
					<dim>1</dim>
					<dim>1</dim>
				</port>
			</input>
			<output>
				<port id="2" precision="FP16">
					<dim>1</dim>
					<dim>192</dim>
					<dim>30</dim>
					<dim>30</dim>
				</port>
			</output>
		</layer>
		<layer id="178" name="MobilenetV2/expanded_conv_4/expand/BatchNorm/FusedBatchNormV3/variance/Fused_Add_" type="Add" version="opset1">
			<data auto_broadcast="numpy" />
			<input>
				<port id="0">
					<dim>1</dim>
					<dim>192</dim>
					<dim>30</dim>
					<dim>30</dim>
				</port>
				<port id="1">
					<dim>1</dim>
					<dim>192</dim>
					<dim>1</dim>
					<dim>1</dim>
				</port>
			</input>
			<output>
				<port id="2" names="MobilenetV2/expanded_conv_4/expand/BatchNorm/FusedBatchNormV3:0" precision="FP16">
					<dim>1</dim>
					<dim>192</dim>
					<dim>30</dim>
					<dim>30</dim>
				</port>
			</output>
		</layer>
		<layer id="179" name="MobilenetV2/expanded_conv_4/expand/Relu6" type="Clamp" version="opset1">
			<data max="6.0" min="0.0" />
			<input>
				<port id="0">
					<dim>1</dim>
					<dim>192</dim>
					<dim>30</dim>
					<dim>30</dim>
				</port>
			</input>
			<output>
				<port id="1" names="MobilenetV2/expanded_conv_4/expand/Relu6:0,MobilenetV2/expanded_conv_4/expansion_output:0" precision="FP16">
					<dim>1</dim>
					<dim>192</dim>
					<dim>30</dim>
					<dim>30</dim>
				</port>
			</output>
		</layer>
		<layer id="180" name="MobilenetV2/expanded_conv_4/depthwise/BatchNorm/FusedBatchNormV3/mean/Fused_Mul__copy" type="Const" version="opset1">
			<data element_type="f16" offset="983106" shape="192,1,1,3,3" size="3456" />
			<output>
				<port id="0" names="MobilenetV2/expanded_conv_4/depthwise/depthwise_weights/read:0" precision="FP16">
					<dim>192</dim>
					<dim>1</dim>
					<dim>1</dim>
					<dim>3</dim>
					<dim>3</dim>
				</port>
			</output>
		</layer>
		<layer id="181" name="MobilenetV2/expanded_conv_4/depthwise/depthwise" type="GroupConvolution" version="opset1">
			<data auto_pad="same_upper" dilations="1,1" pads_begin="0,0" pads_end="0,0" strides="1,1" />
			<input>
				<port id="0">
					<dim>1</dim>
					<dim>192</dim>
					<dim>30</dim>
					<dim>30</dim>
				</port>
				<port id="1">
					<dim>192</dim>
					<dim>1</dim>
					<dim>1</dim>
					<dim>3</dim>
					<dim>3</dim>
				</port>
			</input>
			<output>
				<port id="2" precision="FP16">
					<dim>1</dim>
					<dim>192</dim>
					<dim>30</dim>
					<dim>30</dim>
				</port>
			</output>
		</layer>
		<layer id="182" name="MobilenetV2/expanded_conv_4/depthwise/BatchNorm/FusedBatchNormV3/variance/Fused_Add_" type="Add" version="opset1">
			<data auto_broadcast="numpy" />
			<input>
				<port id="0">
					<dim>1</dim>
					<dim>192</dim>
					<dim>30</dim>
					<dim>30</dim>
				</port>
				<port id="1">
					<dim>1</dim>
					<dim>192</dim>
					<dim>1</dim>
					<dim>1</dim>
				</port>
			</input>
			<output>
				<port id="2" names="MobilenetV2/expanded_conv_4/depthwise/BatchNorm/FusedBatchNormV3:0" precision="FP16">
					<dim>1</dim>
					<dim>192</dim>
					<dim>30</dim>
					<dim>30</dim>
				</port>
			</output>
		</layer>
		<layer id="183" name="MobilenetV2/expanded_conv_4/depthwise/Relu6" type="Clamp" version="opset1">
			<data max="6.0" min="0.0" />
			<input>
				<port id="0">
					<dim>1</dim>
					<dim>192</dim>
					<dim>30</dim>
					<dim>30</dim>
				</port>
			</input>
			<output>
				<port id="1" names="MobilenetV2/expanded_conv_4/depthwise/Relu6:0,MobilenetV2/expanded_conv_4/depthwise_output:0" precision="FP16">
					<dim>1</dim>
					<dim>192</dim>
					<dim>30</dim>
					<dim>30</dim>
				</port>
			</output>
		</layer>
		<layer id="184" name="MobilenetV2/expanded_conv_4/project/Conv2D" type="Convolution" version="opset1">
			<data auto_pad="same_upper" dilations="1,1" pads_begin="0,0" pads_end="0,0" strides="1,1" />
			<input>
				<port id="0">
					<dim>1</dim>
					<dim>192</dim>
					<dim>30</dim>
					<dim>30</dim>
				</port>
				<port id="1">
					<dim>32</dim>
					<dim>192</dim>
					<dim>1</dim>
					<dim>1</dim>
				</port>
			</input>
			<output>
				<port id="2" precision="FP16">
					<dim>1</dim>
					<dim>32</dim>
					<dim>30</dim>
					<dim>30</dim>
				</port>
			</output>
		</layer>
		<layer id="185" name="MobilenetV2/expanded_conv_4/project/BatchNorm/FusedBatchNormV3/variance/Fused_Add_" type="Add" version="opset1">
			<data auto_broadcast="numpy" />
			<input>
				<port id="0">
					<dim>1</dim>
					<dim>32</dim>
					<dim>30</dim>
					<dim>30</dim>
				</port>
				<port id="1">
					<dim>1</dim>
					<dim>32</dim>
					<dim>1</dim>
					<dim>1</dim>
				</port>
			</input>
			<output>
				<port id="2" names="MobilenetV2/expanded_conv_4/project/BatchNorm/FusedBatchNormV3:0,MobilenetV2/expanded_conv_4/project/Identity:0" precision="FP16">
					<dim>1</dim>
					<dim>32</dim>
					<dim>30</dim>
					<dim>30</dim>
				</port>
			</output>
		</layer>
		<layer id="186" name="MobilenetV2/expanded_conv_4/add" type="Add" version="opset1">
			<data auto_broadcast="numpy" />
			<input>
				<port id="0">
					<dim>1</dim>
					<dim>32</dim>
					<dim>30</dim>
					<dim>30</dim>
				</port>
				<port id="1">
					<dim>1</dim>
					<dim>32</dim>
					<dim>30</dim>
					<dim>30</dim>
				</port>
			</input>
			<output>
				<port id="2" names="MobilenetV2/expanded_conv_4/add:0,MobilenetV2/expanded_conv_4/output:0,MobilenetV2/expanded_conv_5/input:0" precision="FP16">
					<dim>1</dim>
					<dim>32</dim>
					<dim>30</dim>
					<dim>30</dim>
				</port>
			</output>
		</layer>
		<layer id="187" name="data_add_1717717182" type="Const" version="opset1">
			<data element_type="f16" offset="986562" shape="1,32,1,1" size="64" />
			<output>
				<port id="0" precision="FP16">
					<dim>1</dim>
					<dim>32</dim>
					<dim>1</dim>
					<dim>1</dim>
				</port>
			</output>
		</layer>
		<layer id="188" name="MobilenetV2/expanded_conv_5/project/BatchNorm/FusedBatchNormV3/mean/Fused_Mul__copy" type="Const" version="opset1">
			<data element_type="f16" offset="986626" shape="32,192,1,1" size="12288" />
			<output>
				<port id="0" names="MobilenetV2/expanded_conv_5/project/weights/read:0" precision="FP16">
					<dim>32</dim>
					<dim>192</dim>
					<dim>1</dim>
					<dim>1</dim>
				</port>
			</output>
		</layer>
		<layer id="189" name="data_add_1716917174" type="Const" version="opset1">
			<data element_type="f16" offset="998914" shape="1,192,1,1" size="384" />
			<output>
				<port id="0" precision="FP16">
					<dim>1</dim>
					<dim>192</dim>
					<dim>1</dim>
					<dim>1</dim>
				</port>
			</output>
		</layer>
		<layer id="190" name="data_add_1716117166" type="Const" version="opset1">
			<data element_type="f16" offset="999298" shape="1,192,1,1" size="384" />
			<output>
				<port id="0" precision="FP16">
					<dim>1</dim>
					<dim>192</dim>
					<dim>1</dim>
					<dim>1</dim>
				</port>
			</output>
		</layer>
		<layer id="191" name="MobilenetV2/expanded_conv_5/expand/BatchNorm/FusedBatchNormV3/mean/Fused_Mul__copy" type="Const" version="opset1">
			<data element_type="f16" offset="999682" shape="192,32,1,1" size="12288" />
			<output>
				<port id="0" names="MobilenetV2/expanded_conv_5/expand/weights/read:0" precision="FP16">
					<dim>192</dim>
					<dim>32</dim>
					<dim>1</dim>
					<dim>1</dim>
				</port>
			</output>
		</layer>
		<layer id="192" name="MobilenetV2/expanded_conv_5/expand/Conv2D" type="Convolution" version="opset1">
			<data auto_pad="same_upper" dilations="1,1" pads_begin="0,0" pads_end="0,0" strides="1,1" />
			<input>
				<port id="0">
					<dim>1</dim>
					<dim>32</dim>
					<dim>30</dim>
					<dim>30</dim>
				</port>
				<port id="1">
					<dim>192</dim>
					<dim>32</dim>
					<dim>1</dim>
					<dim>1</dim>
				</port>
			</input>
			<output>
				<port id="2" precision="FP16">
					<dim>1</dim>
					<dim>192</dim>
					<dim>30</dim>
					<dim>30</dim>
				</port>
			</output>
		</layer>
		<layer id="193" name="MobilenetV2/expanded_conv_5/expand/BatchNorm/FusedBatchNormV3/variance/Fused_Add_" type="Add" version="opset1">
			<data auto_broadcast="numpy" />
			<input>
				<port id="0">
					<dim>1</dim>
					<dim>192</dim>
					<dim>30</dim>
					<dim>30</dim>
				</port>
				<port id="1">
					<dim>1</dim>
					<dim>192</dim>
					<dim>1</dim>
					<dim>1</dim>
				</port>
			</input>
			<output>
				<port id="2" names="MobilenetV2/expanded_conv_5/expand/BatchNorm/FusedBatchNormV3:0" precision="FP16">
					<dim>1</dim>
					<dim>192</dim>
					<dim>30</dim>
					<dim>30</dim>
				</port>
			</output>
		</layer>
		<layer id="194" name="MobilenetV2/expanded_conv_5/expand/Relu6" type="Clamp" version="opset1">
			<data max="6.0" min="0.0" />
			<input>
				<port id="0">
					<dim>1</dim>
					<dim>192</dim>
					<dim>30</dim>
					<dim>30</dim>
				</port>
			</input>
			<output>
				<port id="1" names="MobilenetV2/expanded_conv_5/expand/Relu6:0,MobilenetV2/expanded_conv_5/expansion_output:0" precision="FP16">
					<dim>1</dim>
					<dim>192</dim>
					<dim>30</dim>
					<dim>30</dim>
				</port>
			</output>
		</layer>
		<layer id="195" name="MobilenetV2/expanded_conv_5/depthwise/BatchNorm/FusedBatchNormV3/mean/Fused_Mul__copy" type="Const" version="opset1">
			<data element_type="f16" offset="1011970" shape="192,1,1,3,3" size="3456" />
			<output>
				<port id="0" names="MobilenetV2/expanded_conv_5/depthwise/depthwise_weights/read:0" precision="FP16">
					<dim>192</dim>
					<dim>1</dim>
					<dim>1</dim>
					<dim>3</dim>
					<dim>3</dim>
				</port>
			</output>
		</layer>
		<layer id="196" name="MobilenetV2/expanded_conv_5/depthwise/depthwise" type="GroupConvolution" version="opset1">
			<data auto_pad="same_upper" dilations="1,1" pads_begin="0,0" pads_end="0,0" strides="1,1" />
			<input>
				<port id="0">
					<dim>1</dim>
					<dim>192</dim>
					<dim>30</dim>
					<dim>30</dim>
				</port>
				<port id="1">
					<dim>192</dim>
					<dim>1</dim>
					<dim>1</dim>
					<dim>3</dim>
					<dim>3</dim>
				</port>
			</input>
			<output>
				<port id="2" precision="FP16">
					<dim>1</dim>
					<dim>192</dim>
					<dim>30</dim>
					<dim>30</dim>
				</port>
			</output>
		</layer>
		<layer id="197" name="MobilenetV2/expanded_conv_5/depthwise/BatchNorm/FusedBatchNormV3/variance/Fused_Add_" type="Add" version="opset1">
			<data auto_broadcast="numpy" />
			<input>
				<port id="0">
					<dim>1</dim>
					<dim>192</dim>
					<dim>30</dim>
					<dim>30</dim>
				</port>
				<port id="1">
					<dim>1</dim>
					<dim>192</dim>
					<dim>1</dim>
					<dim>1</dim>
				</port>
			</input>
			<output>
				<port id="2" names="MobilenetV2/expanded_conv_5/depthwise/BatchNorm/FusedBatchNormV3:0" precision="FP16">
					<dim>1</dim>
					<dim>192</dim>
					<dim>30</dim>
					<dim>30</dim>
				</port>
			</output>
		</layer>
		<layer id="198" name="MobilenetV2/expanded_conv_5/depthwise/Relu6" type="Clamp" version="opset1">
			<data max="6.0" min="0.0" />
			<input>
				<port id="0">
					<dim>1</dim>
					<dim>192</dim>
					<dim>30</dim>
					<dim>30</dim>
				</port>
			</input>
			<output>
				<port id="1" names="MobilenetV2/expanded_conv_5/depthwise/Relu6:0,MobilenetV2/expanded_conv_5/depthwise_output:0" precision="FP16">
					<dim>1</dim>
					<dim>192</dim>
					<dim>30</dim>
					<dim>30</dim>
				</port>
			</output>
		</layer>
		<layer id="199" name="MobilenetV2/expanded_conv_5/project/Conv2D" type="Convolution" version="opset1">
			<data auto_pad="same_upper" dilations="1,1" pads_begin="0,0" pads_end="0,0" strides="1,1" />
			<input>
				<port id="0">
					<dim>1</dim>
					<dim>192</dim>
					<dim>30</dim>
					<dim>30</dim>
				</port>
				<port id="1">
					<dim>32</dim>
					<dim>192</dim>
					<dim>1</dim>
					<dim>1</dim>
				</port>
			</input>
			<output>
				<port id="2" precision="FP16">
					<dim>1</dim>
					<dim>32</dim>
					<dim>30</dim>
					<dim>30</dim>
				</port>
			</output>
		</layer>
		<layer id="200" name="MobilenetV2/expanded_conv_5/project/BatchNorm/FusedBatchNormV3/variance/Fused_Add_" type="Add" version="opset1">
			<data auto_broadcast="numpy" />
			<input>
				<port id="0">
					<dim>1</dim>
					<dim>32</dim>
					<dim>30</dim>
					<dim>30</dim>
				</port>
				<port id="1">
					<dim>1</dim>
					<dim>32</dim>
					<dim>1</dim>
					<dim>1</dim>
				</port>
			</input>
			<output>
				<port id="2" names="MobilenetV2/expanded_conv_5/project/BatchNorm/FusedBatchNormV3:0,MobilenetV2/expanded_conv_5/project/Identity:0" precision="FP16">
					<dim>1</dim>
					<dim>32</dim>
					<dim>30</dim>
					<dim>30</dim>
				</port>
			</output>
		</layer>
		<layer id="201" name="MobilenetV2/expanded_conv_5/add" type="Add" version="opset1">
			<data auto_broadcast="numpy" />
			<input>
				<port id="0">
					<dim>1</dim>
					<dim>32</dim>
					<dim>30</dim>
					<dim>30</dim>
				</port>
				<port id="1">
					<dim>1</dim>
					<dim>32</dim>
					<dim>30</dim>
					<dim>30</dim>
				</port>
			</input>
			<output>
				<port id="2" names="MobilenetV2/expanded_conv_5/add:0,MobilenetV2/expanded_conv_5/output:0,MobilenetV2/expanded_conv_6/input:0" precision="FP16">
					<dim>1</dim>
					<dim>32</dim>
					<dim>30</dim>
					<dim>30</dim>
				</port>
			</output>
		</layer>
		<layer id="202" name="MobilenetV2/expanded_conv_6/expand/BatchNorm/FusedBatchNormV3/mean/Fused_Mul__copy" type="Const" version="opset1">
			<data element_type="f16" offset="1015426" shape="192,32,1,1" size="12288" />
			<output>
				<port id="0" names="MobilenetV2/expanded_conv_6/expand/weights/read:0" precision="FP16">
					<dim>192</dim>
					<dim>32</dim>
					<dim>1</dim>
					<dim>1</dim>
				</port>
			</output>
		</layer>
		<layer id="203" name="MobilenetV2/expanded_conv_6/expand/Conv2D" type="Convolution" version="opset1">
			<data auto_pad="same_upper" dilations="1,1" pads_begin="0,0" pads_end="0,0" strides="1,1" />
			<input>
				<port id="0">
					<dim>1</dim>
					<dim>32</dim>
					<dim>30</dim>
					<dim>30</dim>
				</port>
				<port id="1">
					<dim>192</dim>
					<dim>32</dim>
					<dim>1</dim>
					<dim>1</dim>
				</port>
			</input>
			<output>
				<port id="2" precision="FP16">
					<dim>1</dim>
					<dim>192</dim>
					<dim>30</dim>
					<dim>30</dim>
				</port>
			</output>
		</layer>
		<layer id="204" name="MobilenetV2/expanded_conv_6/expand/BatchNorm/FusedBatchNormV3/variance/Fused_Add_" type="Add" version="opset1">
			<data auto_broadcast="numpy" />
			<input>
				<port id="0">
					<dim>1</dim>
					<dim>192</dim>
					<dim>30</dim>
					<dim>30</dim>
				</port>
				<port id="1">
					<dim>1</dim>
					<dim>192</dim>
					<dim>1</dim>
					<dim>1</dim>
				</port>
			</input>
			<output>
				<port id="2" names="MobilenetV2/expanded_conv_6/expand/BatchNorm/FusedBatchNormV3:0" precision="FP16">
					<dim>1</dim>
					<dim>192</dim>
					<dim>30</dim>
					<dim>30</dim>
				</port>
			</output>
		</layer>
		<layer id="205" name="MobilenetV2/expanded_conv_6/expand/Relu6" type="Clamp" version="opset1">
			<data max="6.0" min="0.0" />
			<input>
				<port id="0">
					<dim>1</dim>
					<dim>192</dim>
					<dim>30</dim>
					<dim>30</dim>
				</port>
			</input>
			<output>
				<port id="1" names="MobilenetV2/expanded_conv_6/expand/Relu6:0,MobilenetV2/expanded_conv_6/expansion_output:0" precision="FP16">
					<dim>1</dim>
					<dim>192</dim>
					<dim>30</dim>
					<dim>30</dim>
				</port>
			</output>
		</layer>
		<layer id="206" name="MobilenetV2/expanded_conv_6/depthwise/BatchNorm/FusedBatchNormV3/mean/Fused_Mul__copy" type="Const" version="opset1">
			<data element_type="f16" offset="1027714" shape="192,1,1,3,3" size="3456" />
			<output>
				<port id="0" names="MobilenetV2/expanded_conv_6/depthwise/depthwise_weights/read:0" precision="FP16">
					<dim>192</dim>
					<dim>1</dim>
					<dim>1</dim>
					<dim>3</dim>
					<dim>3</dim>
				</port>
			</output>
		</layer>
		<layer id="207" name="MobilenetV2/expanded_conv_6/depthwise/depthwise" type="GroupConvolution" version="opset1">
			<data auto_pad="same_upper" dilations="1,1" pads_begin="0,0" pads_end="0,0" strides="1,1" />
			<input>
				<port id="0">
					<dim>1</dim>
					<dim>192</dim>
					<dim>30</dim>
					<dim>30</dim>
				</port>
				<port id="1">
					<dim>192</dim>
					<dim>1</dim>
					<dim>1</dim>
					<dim>3</dim>
					<dim>3</dim>
				</port>
			</input>
			<output>
				<port id="2" precision="FP16">
					<dim>1</dim>
					<dim>192</dim>
					<dim>30</dim>
					<dim>30</dim>
				</port>
			</output>
		</layer>
		<layer id="208" name="MobilenetV2/expanded_conv_6/depthwise/BatchNorm/FusedBatchNormV3/variance/Fused_Add_" type="Add" version="opset1">
			<data auto_broadcast="numpy" />
			<input>
				<port id="0">
					<dim>1</dim>
					<dim>192</dim>
					<dim>30</dim>
					<dim>30</dim>
				</port>
				<port id="1">
					<dim>1</dim>
					<dim>192</dim>
					<dim>1</dim>
					<dim>1</dim>
				</port>
			</input>
			<output>
				<port id="2" names="MobilenetV2/expanded_conv_6/depthwise/BatchNorm/FusedBatchNormV3:0" precision="FP16">
					<dim>1</dim>
					<dim>192</dim>
					<dim>30</dim>
					<dim>30</dim>
				</port>
			</output>
		</layer>
		<layer id="209" name="MobilenetV2/expanded_conv_6/depthwise/Relu6" type="Clamp" version="opset1">
			<data max="6.0" min="0.0" />
			<input>
				<port id="0">
					<dim>1</dim>
					<dim>192</dim>
					<dim>30</dim>
					<dim>30</dim>
				</port>
			</input>
			<output>
				<port id="1" names="MobilenetV2/expanded_conv_6/depthwise/Relu6:0,MobilenetV2/expanded_conv_6/depthwise_output:0" precision="FP16">
					<dim>1</dim>
					<dim>192</dim>
					<dim>30</dim>
					<dim>30</dim>
				</port>
			</output>
		</layer>
		<layer id="210" name="MobilenetV2/expanded_conv_6/project/Conv2D" type="Convolution" version="opset1">
			<data auto_pad="same_upper" dilations="1,1" pads_begin="0,0" pads_end="0,0" strides="1,1" />
			<input>
				<port id="0">
					<dim>1</dim>
					<dim>192</dim>
					<dim>30</dim>
					<dim>30</dim>
				</port>
				<port id="1">
					<dim>64</dim>
					<dim>192</dim>
					<dim>1</dim>
					<dim>1</dim>
				</port>
			</input>
			<output>
				<port id="2" precision="FP16">
					<dim>1</dim>
					<dim>64</dim>
					<dim>30</dim>
					<dim>30</dim>
				</port>
			</output>
		</layer>
		<layer id="211" name="MobilenetV2/expanded_conv_6/project/BatchNorm/FusedBatchNormV3/variance/Fused_Add_" type="Add" version="opset1">
			<data auto_broadcast="numpy" />
			<input>
				<port id="0">
					<dim>1</dim>
					<dim>64</dim>
					<dim>30</dim>
					<dim>30</dim>
				</port>
				<port id="1">
					<dim>1</dim>
					<dim>64</dim>
					<dim>1</dim>
					<dim>1</dim>
				</port>
			</input>
			<output>
				<port id="2" names="MobilenetV2/expanded_conv_6/output:0,MobilenetV2/expanded_conv_6/project/BatchNorm/FusedBatchNormV3:0,MobilenetV2/expanded_conv_6/project/Identity:0,MobilenetV2/expanded_conv_7/input:0" precision="FP16">
					<dim>1</dim>
					<dim>64</dim>
					<dim>30</dim>
					<dim>30</dim>
				</port>
			</output>
		</layer>
		<layer id="212" name="data_add_1722517230" type="Const" version="opset1">
			<data element_type="f16" offset="1031170" shape="1,64,1,1" size="128" />
			<output>
				<port id="0" precision="FP16">
					<dim>1</dim>
					<dim>64</dim>
					<dim>1</dim>
					<dim>1</dim>
				</port>
			</output>
		</layer>
		<layer id="213" name="MobilenetV2/expanded_conv_7/project/BatchNorm/FusedBatchNormV3/mean/Fused_Mul__copy" type="Const" version="opset1">
			<data element_type="f16" offset="1031298" shape="64,384,1,1" size="49152" />
			<output>
				<port id="0" names="MobilenetV2/expanded_conv_7/project/weights/read:0" precision="FP16">
					<dim>64</dim>
					<dim>384</dim>
					<dim>1</dim>
					<dim>1</dim>
				</port>
			</output>
		</layer>
		<layer id="214" name="data_add_1721717222" type="Const" version="opset1">
			<data element_type="f16" offset="1080450" shape="1,384,1,1" size="768" />
			<output>
				<port id="0" precision="FP16">
					<dim>1</dim>
					<dim>384</dim>
					<dim>1</dim>
					<dim>1</dim>
				</port>
			</output>
		</layer>
		<layer id="215" name="data_add_1720917214" type="Const" version="opset1">
			<data element_type="f16" offset="1081218" shape="1,384,1,1" size="768" />
			<output>
				<port id="0" precision="FP16">
					<dim>1</dim>
					<dim>384</dim>
					<dim>1</dim>
					<dim>1</dim>
				</port>
			</output>
		</layer>
		<layer id="216" name="MobilenetV2/expanded_conv_7/expand/BatchNorm/FusedBatchNormV3/mean/Fused_Mul__copy" type="Const" version="opset1">
			<data element_type="f16" offset="1081986" shape="384,64,1,1" size="49152" />
			<output>
				<port id="0" names="MobilenetV2/expanded_conv_7/expand/weights/read:0" precision="FP16">
					<dim>384</dim>
					<dim>64</dim>
					<dim>1</dim>
					<dim>1</dim>
				</port>
			</output>
		</layer>
		<layer id="217" name="MobilenetV2/expanded_conv_7/expand/Conv2D" type="Convolution" version="opset1">
			<data auto_pad="same_upper" dilations="1,1" pads_begin="0,0" pads_end="0,0" strides="1,1" />
			<input>
				<port id="0">
					<dim>1</dim>
					<dim>64</dim>
					<dim>30</dim>
					<dim>30</dim>
				</port>
				<port id="1">
					<dim>384</dim>
					<dim>64</dim>
					<dim>1</dim>
					<dim>1</dim>
				</port>
			</input>
			<output>
				<port id="2" precision="FP16">
					<dim>1</dim>
					<dim>384</dim>
					<dim>30</dim>
					<dim>30</dim>
				</port>
			</output>
		</layer>
		<layer id="218" name="MobilenetV2/expanded_conv_7/expand/BatchNorm/FusedBatchNormV3/variance/Fused_Add_" type="Add" version="opset1">
			<data auto_broadcast="numpy" />
			<input>
				<port id="0">
					<dim>1</dim>
					<dim>384</dim>
					<dim>30</dim>
					<dim>30</dim>
				</port>
				<port id="1">
					<dim>1</dim>
					<dim>384</dim>
					<dim>1</dim>
					<dim>1</dim>
				</port>
			</input>
			<output>
				<port id="2" names="MobilenetV2/expanded_conv_7/expand/BatchNorm/FusedBatchNormV3:0" precision="FP16">
					<dim>1</dim>
					<dim>384</dim>
					<dim>30</dim>
					<dim>30</dim>
				</port>
			</output>
		</layer>
		<layer id="219" name="MobilenetV2/expanded_conv_7/expand/Relu6" type="Clamp" version="opset1">
			<data max="6.0" min="0.0" />
			<input>
				<port id="0">
					<dim>1</dim>
					<dim>384</dim>
					<dim>30</dim>
					<dim>30</dim>
				</port>
			</input>
			<output>
				<port id="1" names="MobilenetV2/expanded_conv_7/expand/Relu6:0,MobilenetV2/expanded_conv_7/expansion_output:0" precision="FP16">
					<dim>1</dim>
					<dim>384</dim>
					<dim>30</dim>
					<dim>30</dim>
				</port>
			</output>
		</layer>
		<layer id="220" name="MobilenetV2/expanded_conv_7/depthwise/BatchNorm/FusedBatchNormV3/mean/Fused_Mul__copy" type="Const" version="opset1">
			<data element_type="f16" offset="1131138" shape="384,1,1,3,3" size="6912" />
			<output>
				<port id="0" names="MobilenetV2/expanded_conv_7/depthwise/depthwise_weights/read:0" precision="FP16">
					<dim>384</dim>
					<dim>1</dim>
					<dim>1</dim>
					<dim>3</dim>
					<dim>3</dim>
				</port>
			</output>
		</layer>
		<layer id="221" name="MobilenetV2/expanded_conv_7/depthwise/depthwise" type="GroupConvolution" version="opset1">
			<data auto_pad="explicit" dilations="2,2" pads_begin="2,2" pads_end="2,2" strides="1,1" />
			<input>
				<port id="0">
					<dim>1</dim>
					<dim>384</dim>
					<dim>30</dim>
					<dim>30</dim>
				</port>
				<port id="1">
					<dim>384</dim>
					<dim>1</dim>
					<dim>1</dim>
					<dim>3</dim>
					<dim>3</dim>
				</port>
			</input>
			<output>
				<port id="2" precision="FP16">
					<dim>1</dim>
					<dim>384</dim>
					<dim>30</dim>
					<dim>30</dim>
				</port>
			</output>
		</layer>
		<layer id="222" name="MobilenetV2/expanded_conv_7/depthwise/BatchNorm/FusedBatchNormV3/variance/Fused_Add_" type="Add" version="opset1">
			<data auto_broadcast="numpy" />
			<input>
				<port id="0">
					<dim>1</dim>
					<dim>384</dim>
					<dim>30</dim>
					<dim>30</dim>
				</port>
				<port id="1">
					<dim>1</dim>
					<dim>384</dim>
					<dim>1</dim>
					<dim>1</dim>
				</port>
			</input>
			<output>
				<port id="2" names="MobilenetV2/expanded_conv_7/depthwise/BatchNorm/FusedBatchNormV3:0" precision="FP16">
					<dim>1</dim>
					<dim>384</dim>
					<dim>30</dim>
					<dim>30</dim>
				</port>
			</output>
		</layer>
		<layer id="223" name="MobilenetV2/expanded_conv_7/depthwise/Relu6" type="Clamp" version="opset1">
			<data max="6.0" min="0.0" />
			<input>
				<port id="0">
					<dim>1</dim>
					<dim>384</dim>
					<dim>30</dim>
					<dim>30</dim>
				</port>
			</input>
			<output>
				<port id="1" names="MobilenetV2/expanded_conv_7/depthwise/Relu6:0,MobilenetV2/expanded_conv_7/depthwise_output:0" precision="FP16">
					<dim>1</dim>
					<dim>384</dim>
					<dim>30</dim>
					<dim>30</dim>
				</port>
			</output>
		</layer>
		<layer id="224" name="MobilenetV2/expanded_conv_7/project/Conv2D" type="Convolution" version="opset1">
			<data auto_pad="same_upper" dilations="1,1" pads_begin="0,0" pads_end="0,0" strides="1,1" />
			<input>
				<port id="0">
					<dim>1</dim>
					<dim>384</dim>
					<dim>30</dim>
					<dim>30</dim>
				</port>
				<port id="1">
					<dim>64</dim>
					<dim>384</dim>
					<dim>1</dim>
					<dim>1</dim>
				</port>
			</input>
			<output>
				<port id="2" precision="FP16">
					<dim>1</dim>
					<dim>64</dim>
					<dim>30</dim>
					<dim>30</dim>
				</port>
			</output>
		</layer>
		<layer id="225" name="MobilenetV2/expanded_conv_7/project/BatchNorm/FusedBatchNormV3/variance/Fused_Add_" type="Add" version="opset1">
			<data auto_broadcast="numpy" />
			<input>
				<port id="0">
					<dim>1</dim>
					<dim>64</dim>
					<dim>30</dim>
					<dim>30</dim>
				</port>
				<port id="1">
					<dim>1</dim>
					<dim>64</dim>
					<dim>1</dim>
					<dim>1</dim>
				</port>
			</input>
			<output>
				<port id="2" names="MobilenetV2/expanded_conv_7/project/BatchNorm/FusedBatchNormV3:0,MobilenetV2/expanded_conv_7/project/Identity:0" precision="FP16">
					<dim>1</dim>
					<dim>64</dim>
					<dim>30</dim>
					<dim>30</dim>
				</port>
			</output>
		</layer>
		<layer id="226" name="MobilenetV2/expanded_conv_7/add" type="Add" version="opset1">
			<data auto_broadcast="numpy" />
			<input>
				<port id="0">
					<dim>1</dim>
					<dim>64</dim>
					<dim>30</dim>
					<dim>30</dim>
				</port>
				<port id="1">
					<dim>1</dim>
					<dim>64</dim>
					<dim>30</dim>
					<dim>30</dim>
				</port>
			</input>
			<output>
				<port id="2" names="MobilenetV2/expanded_conv_7/add:0,MobilenetV2/expanded_conv_7/output:0,MobilenetV2/expanded_conv_8/input:0" precision="FP16">
					<dim>1</dim>
					<dim>64</dim>
					<dim>30</dim>
					<dim>30</dim>
				</port>
			</output>
		</layer>
		<layer id="227" name="data_add_1724917254" type="Const" version="opset1">
			<data element_type="f16" offset="1138050" shape="1,64,1,1" size="128" />
			<output>
				<port id="0" precision="FP16">
					<dim>1</dim>
					<dim>64</dim>
					<dim>1</dim>
					<dim>1</dim>
				</port>
			</output>
		</layer>
		<layer id="228" name="MobilenetV2/expanded_conv_8/project/BatchNorm/FusedBatchNormV3/mean/Fused_Mul__copy" type="Const" version="opset1">
			<data element_type="f16" offset="1138178" shape="64,384,1,1" size="49152" />
			<output>
				<port id="0" names="MobilenetV2/expanded_conv_8/project/weights/read:0" precision="FP16">
					<dim>64</dim>
					<dim>384</dim>
					<dim>1</dim>
					<dim>1</dim>
				</port>
			</output>
		</layer>
		<layer id="229" name="data_add_1724117246" type="Const" version="opset1">
			<data element_type="f16" offset="1187330" shape="1,384,1,1" size="768" />
			<output>
				<port id="0" precision="FP16">
					<dim>1</dim>
					<dim>384</dim>
					<dim>1</dim>
					<dim>1</dim>
				</port>
			</output>
		</layer>
		<layer id="230" name="data_add_1723317238" type="Const" version="opset1">
			<data element_type="f16" offset="1188098" shape="1,384,1,1" size="768" />
			<output>
				<port id="0" precision="FP16">
					<dim>1</dim>
					<dim>384</dim>
					<dim>1</dim>
					<dim>1</dim>
				</port>
			</output>
		</layer>
		<layer id="231" name="MobilenetV2/expanded_conv_8/expand/BatchNorm/FusedBatchNormV3/mean/Fused_Mul__copy" type="Const" version="opset1">
			<data element_type="f16" offset="1188866" shape="384,64,1,1" size="49152" />
			<output>
				<port id="0" names="MobilenetV2/expanded_conv_8/expand/weights/read:0" precision="FP16">
					<dim>384</dim>
					<dim>64</dim>
					<dim>1</dim>
					<dim>1</dim>
				</port>
			</output>
		</layer>
		<layer id="232" name="MobilenetV2/expanded_conv_8/expand/Conv2D" type="Convolution" version="opset1">
			<data auto_pad="same_upper" dilations="1,1" pads_begin="0,0" pads_end="0,0" strides="1,1" />
			<input>
				<port id="0">
					<dim>1</dim>
					<dim>64</dim>
					<dim>30</dim>
					<dim>30</dim>
				</port>
				<port id="1">
					<dim>384</dim>
					<dim>64</dim>
					<dim>1</dim>
					<dim>1</dim>
				</port>
			</input>
			<output>
				<port id="2" precision="FP16">
					<dim>1</dim>
					<dim>384</dim>
					<dim>30</dim>
					<dim>30</dim>
				</port>
			</output>
		</layer>
		<layer id="233" name="MobilenetV2/expanded_conv_8/expand/BatchNorm/FusedBatchNormV3/variance/Fused_Add_" type="Add" version="opset1">
			<data auto_broadcast="numpy" />
			<input>
				<port id="0">
					<dim>1</dim>
					<dim>384</dim>
					<dim>30</dim>
					<dim>30</dim>
				</port>
				<port id="1">
					<dim>1</dim>
					<dim>384</dim>
					<dim>1</dim>
					<dim>1</dim>
				</port>
			</input>
			<output>
				<port id="2" names="MobilenetV2/expanded_conv_8/expand/BatchNorm/FusedBatchNormV3:0" precision="FP16">
					<dim>1</dim>
					<dim>384</dim>
					<dim>30</dim>
					<dim>30</dim>
				</port>
			</output>
		</layer>
		<layer id="234" name="MobilenetV2/expanded_conv_8/expand/Relu6" type="Clamp" version="opset1">
			<data max="6.0" min="0.0" />
			<input>
				<port id="0">
					<dim>1</dim>
					<dim>384</dim>
					<dim>30</dim>
					<dim>30</dim>
				</port>
			</input>
			<output>
				<port id="1" names="MobilenetV2/expanded_conv_8/expand/Relu6:0,MobilenetV2/expanded_conv_8/expansion_output:0" precision="FP16">
					<dim>1</dim>
					<dim>384</dim>
					<dim>30</dim>
					<dim>30</dim>
				</port>
			</output>
		</layer>
		<layer id="235" name="MobilenetV2/expanded_conv_8/depthwise/BatchNorm/FusedBatchNormV3/mean/Fused_Mul__copy" type="Const" version="opset1">
			<data element_type="f16" offset="1238018" shape="384,1,1,3,3" size="6912" />
			<output>
				<port id="0" names="MobilenetV2/expanded_conv_8/depthwise/depthwise_weights/read:0" precision="FP16">
					<dim>384</dim>
					<dim>1</dim>
					<dim>1</dim>
					<dim>3</dim>
					<dim>3</dim>
				</port>
			</output>
		</layer>
		<layer id="236" name="MobilenetV2/expanded_conv_8/depthwise/depthwise" type="GroupConvolution" version="opset1">
			<data auto_pad="explicit" dilations="2,2" pads_begin="2,2" pads_end="2,2" strides="1,1" />
			<input>
				<port id="0">
					<dim>1</dim>
					<dim>384</dim>
					<dim>30</dim>
					<dim>30</dim>
				</port>
				<port id="1">
					<dim>384</dim>
					<dim>1</dim>
					<dim>1</dim>
					<dim>3</dim>
					<dim>3</dim>
				</port>
			</input>
			<output>
				<port id="2" precision="FP16">
					<dim>1</dim>
					<dim>384</dim>
					<dim>30</dim>
					<dim>30</dim>
				</port>
			</output>
		</layer>
		<layer id="237" name="MobilenetV2/expanded_conv_8/depthwise/BatchNorm/FusedBatchNormV3/variance/Fused_Add_" type="Add" version="opset1">
			<data auto_broadcast="numpy" />
			<input>
				<port id="0">
					<dim>1</dim>
					<dim>384</dim>
					<dim>30</dim>
					<dim>30</dim>
				</port>
				<port id="1">
					<dim>1</dim>
					<dim>384</dim>
					<dim>1</dim>
					<dim>1</dim>
				</port>
			</input>
			<output>
				<port id="2" names="MobilenetV2/expanded_conv_8/depthwise/BatchNorm/FusedBatchNormV3:0" precision="FP16">
					<dim>1</dim>
					<dim>384</dim>
					<dim>30</dim>
					<dim>30</dim>
				</port>
			</output>
		</layer>
		<layer id="238" name="MobilenetV2/expanded_conv_8/depthwise/Relu6" type="Clamp" version="opset1">
			<data max="6.0" min="0.0" />
			<input>
				<port id="0">
					<dim>1</dim>
					<dim>384</dim>
					<dim>30</dim>
					<dim>30</dim>
				</port>
			</input>
			<output>
				<port id="1" names="MobilenetV2/expanded_conv_8/depthwise/Relu6:0,MobilenetV2/expanded_conv_8/depthwise_output:0" precision="FP16">
					<dim>1</dim>
					<dim>384</dim>
					<dim>30</dim>
					<dim>30</dim>
				</port>
			</output>
		</layer>
		<layer id="239" name="MobilenetV2/expanded_conv_8/project/Conv2D" type="Convolution" version="opset1">
			<data auto_pad="same_upper" dilations="1,1" pads_begin="0,0" pads_end="0,0" strides="1,1" />
			<input>
				<port id="0">
					<dim>1</dim>
					<dim>384</dim>
					<dim>30</dim>
					<dim>30</dim>
				</port>
				<port id="1">
					<dim>64</dim>
					<dim>384</dim>
					<dim>1</dim>
					<dim>1</dim>
				</port>
			</input>
			<output>
				<port id="2" precision="FP16">
					<dim>1</dim>
					<dim>64</dim>
					<dim>30</dim>
					<dim>30</dim>
				</port>
			</output>
		</layer>
		<layer id="240" name="MobilenetV2/expanded_conv_8/project/BatchNorm/FusedBatchNormV3/variance/Fused_Add_" type="Add" version="opset1">
			<data auto_broadcast="numpy" />
			<input>
				<port id="0">
					<dim>1</dim>
					<dim>64</dim>
					<dim>30</dim>
					<dim>30</dim>
				</port>
				<port id="1">
					<dim>1</dim>
					<dim>64</dim>
					<dim>1</dim>
					<dim>1</dim>
				</port>
			</input>
			<output>
				<port id="2" names="MobilenetV2/expanded_conv_8/project/BatchNorm/FusedBatchNormV3:0,MobilenetV2/expanded_conv_8/project/Identity:0" precision="FP16">
					<dim>1</dim>
					<dim>64</dim>
					<dim>30</dim>
					<dim>30</dim>
				</port>
			</output>
		</layer>
		<layer id="241" name="MobilenetV2/expanded_conv_8/add" type="Add" version="opset1">
			<data auto_broadcast="numpy" />
			<input>
				<port id="0">
					<dim>1</dim>
					<dim>64</dim>
					<dim>30</dim>
					<dim>30</dim>
				</port>
				<port id="1">
					<dim>1</dim>
					<dim>64</dim>
					<dim>30</dim>
					<dim>30</dim>
				</port>
			</input>
			<output>
				<port id="2" names="MobilenetV2/expanded_conv_8/add:0,MobilenetV2/expanded_conv_8/output:0,MobilenetV2/expanded_conv_9/input:0" precision="FP16">
					<dim>1</dim>
					<dim>64</dim>
					<dim>30</dim>
					<dim>30</dim>
				</port>
			</output>
		</layer>
		<layer id="242" name="data_add_1727317278" type="Const" version="opset1">
			<data element_type="f16" offset="1244930" shape="1,64,1,1" size="128" />
			<output>
				<port id="0" precision="FP16">
					<dim>1</dim>
					<dim>64</dim>
					<dim>1</dim>
					<dim>1</dim>
				</port>
			</output>
		</layer>
		<layer id="243" name="MobilenetV2/expanded_conv_9/project/BatchNorm/FusedBatchNormV3/mean/Fused_Mul__copy" type="Const" version="opset1">
			<data element_type="f16" offset="1245058" shape="64,384,1,1" size="49152" />
			<output>
				<port id="0" names="MobilenetV2/expanded_conv_9/project/weights/read:0" precision="FP16">
					<dim>64</dim>
					<dim>384</dim>
					<dim>1</dim>
					<dim>1</dim>
				</port>
			</output>
		</layer>
		<layer id="244" name="data_add_1726517270" type="Const" version="opset1">
			<data element_type="f16" offset="1294210" shape="1,384,1,1" size="768" />
			<output>
				<port id="0" precision="FP16">
					<dim>1</dim>
					<dim>384</dim>
					<dim>1</dim>
					<dim>1</dim>
				</port>
			</output>
		</layer>
		<layer id="245" name="data_add_1725717262" type="Const" version="opset1">
			<data element_type="f16" offset="1294978" shape="1,384,1,1" size="768" />
			<output>
				<port id="0" precision="FP16">
					<dim>1</dim>
					<dim>384</dim>
					<dim>1</dim>
					<dim>1</dim>
				</port>
			</output>
		</layer>
		<layer id="246" name="MobilenetV2/expanded_conv_9/expand/BatchNorm/FusedBatchNormV3/mean/Fused_Mul__copy" type="Const" version="opset1">
			<data element_type="f16" offset="1295746" shape="384,64,1,1" size="49152" />
			<output>
				<port id="0" names="MobilenetV2/expanded_conv_9/expand/weights/read:0" precision="FP16">
					<dim>384</dim>
					<dim>64</dim>
					<dim>1</dim>
					<dim>1</dim>
				</port>
			</output>
		</layer>
		<layer id="247" name="MobilenetV2/expanded_conv_9/expand/Conv2D" type="Convolution" version="opset1">
			<data auto_pad="same_upper" dilations="1,1" pads_begin="0,0" pads_end="0,0" strides="1,1" />
			<input>
				<port id="0">
					<dim>1</dim>
					<dim>64</dim>
					<dim>30</dim>
					<dim>30</dim>
				</port>
				<port id="1">
					<dim>384</dim>
					<dim>64</dim>
					<dim>1</dim>
					<dim>1</dim>
				</port>
			</input>
			<output>
				<port id="2" precision="FP16">
					<dim>1</dim>
					<dim>384</dim>
					<dim>30</dim>
					<dim>30</dim>
				</port>
			</output>
		</layer>
		<layer id="248" name="MobilenetV2/expanded_conv_9/expand/BatchNorm/FusedBatchNormV3/variance/Fused_Add_" type="Add" version="opset1">
			<data auto_broadcast="numpy" />
			<input>
				<port id="0">
					<dim>1</dim>
					<dim>384</dim>
					<dim>30</dim>
					<dim>30</dim>
				</port>
				<port id="1">
					<dim>1</dim>
					<dim>384</dim>
					<dim>1</dim>
					<dim>1</dim>
				</port>
			</input>
			<output>
				<port id="2" names="MobilenetV2/expanded_conv_9/expand/BatchNorm/FusedBatchNormV3:0" precision="FP16">
					<dim>1</dim>
					<dim>384</dim>
					<dim>30</dim>
					<dim>30</dim>
				</port>
			</output>
		</layer>
		<layer id="249" name="MobilenetV2/expanded_conv_9/expand/Relu6" type="Clamp" version="opset1">
			<data max="6.0" min="0.0" />
			<input>
				<port id="0">
					<dim>1</dim>
					<dim>384</dim>
					<dim>30</dim>
					<dim>30</dim>
				</port>
			</input>
			<output>
				<port id="1" names="MobilenetV2/expanded_conv_9/expand/Relu6:0,MobilenetV2/expanded_conv_9/expansion_output:0" precision="FP16">
					<dim>1</dim>
					<dim>384</dim>
					<dim>30</dim>
					<dim>30</dim>
				</port>
			</output>
		</layer>
		<layer id="250" name="MobilenetV2/expanded_conv_9/depthwise/BatchNorm/FusedBatchNormV3/mean/Fused_Mul__copy" type="Const" version="opset1">
			<data element_type="f16" offset="1344898" shape="384,1,1,3,3" size="6912" />
			<output>
				<port id="0" names="MobilenetV2/expanded_conv_9/depthwise/depthwise_weights/read:0" precision="FP16">
					<dim>384</dim>
					<dim>1</dim>
					<dim>1</dim>
					<dim>3</dim>
					<dim>3</dim>
				</port>
			</output>
		</layer>
		<layer id="251" name="MobilenetV2/expanded_conv_9/depthwise/depthwise" type="GroupConvolution" version="opset1">
			<data auto_pad="explicit" dilations="2,2" pads_begin="2,2" pads_end="2,2" strides="1,1" />
			<input>
				<port id="0">
					<dim>1</dim>
					<dim>384</dim>
					<dim>30</dim>
					<dim>30</dim>
				</port>
				<port id="1">
					<dim>384</dim>
					<dim>1</dim>
					<dim>1</dim>
					<dim>3</dim>
					<dim>3</dim>
				</port>
			</input>
			<output>
				<port id="2" precision="FP16">
					<dim>1</dim>
					<dim>384</dim>
					<dim>30</dim>
					<dim>30</dim>
				</port>
			</output>
		</layer>
		<layer id="252" name="MobilenetV2/expanded_conv_9/depthwise/BatchNorm/FusedBatchNormV3/variance/Fused_Add_" type="Add" version="opset1">
			<data auto_broadcast="numpy" />
			<input>
				<port id="0">
					<dim>1</dim>
					<dim>384</dim>
					<dim>30</dim>
					<dim>30</dim>
				</port>
				<port id="1">
					<dim>1</dim>
					<dim>384</dim>
					<dim>1</dim>
					<dim>1</dim>
				</port>
			</input>
			<output>
				<port id="2" names="MobilenetV2/expanded_conv_9/depthwise/BatchNorm/FusedBatchNormV3:0" precision="FP16">
					<dim>1</dim>
					<dim>384</dim>
					<dim>30</dim>
					<dim>30</dim>
				</port>
			</output>
		</layer>
		<layer id="253" name="MobilenetV2/expanded_conv_9/depthwise/Relu6" type="Clamp" version="opset1">
			<data max="6.0" min="0.0" />
			<input>
				<port id="0">
					<dim>1</dim>
					<dim>384</dim>
					<dim>30</dim>
					<dim>30</dim>
				</port>
			</input>
			<output>
				<port id="1" names="MobilenetV2/expanded_conv_9/depthwise/Relu6:0,MobilenetV2/expanded_conv_9/depthwise_output:0" precision="FP16">
					<dim>1</dim>
					<dim>384</dim>
					<dim>30</dim>
					<dim>30</dim>
				</port>
			</output>
		</layer>
		<layer id="254" name="MobilenetV2/expanded_conv_9/project/Conv2D" type="Convolution" version="opset1">
			<data auto_pad="same_upper" dilations="1,1" pads_begin="0,0" pads_end="0,0" strides="1,1" />
			<input>
				<port id="0">
					<dim>1</dim>
					<dim>384</dim>
					<dim>30</dim>
					<dim>30</dim>
				</port>
				<port id="1">
					<dim>64</dim>
					<dim>384</dim>
					<dim>1</dim>
					<dim>1</dim>
				</port>
			</input>
			<output>
				<port id="2" precision="FP16">
					<dim>1</dim>
					<dim>64</dim>
					<dim>30</dim>
					<dim>30</dim>
				</port>
			</output>
		</layer>
		<layer id="255" name="MobilenetV2/expanded_conv_9/project/BatchNorm/FusedBatchNormV3/variance/Fused_Add_" type="Add" version="opset1">
			<data auto_broadcast="numpy" />
			<input>
				<port id="0">
					<dim>1</dim>
					<dim>64</dim>
					<dim>30</dim>
					<dim>30</dim>
				</port>
				<port id="1">
					<dim>1</dim>
					<dim>64</dim>
					<dim>1</dim>
					<dim>1</dim>
				</port>
			</input>
			<output>
				<port id="2" names="MobilenetV2/expanded_conv_9/project/BatchNorm/FusedBatchNormV3:0,MobilenetV2/expanded_conv_9/project/Identity:0" precision="FP16">
					<dim>1</dim>
					<dim>64</dim>
					<dim>30</dim>
					<dim>30</dim>
				</port>
			</output>
		</layer>
		<layer id="256" name="MobilenetV2/expanded_conv_9/add" type="Add" version="opset1">
			<data auto_broadcast="numpy" />
			<input>
				<port id="0">
					<dim>1</dim>
					<dim>64</dim>
					<dim>30</dim>
					<dim>30</dim>
				</port>
				<port id="1">
					<dim>1</dim>
					<dim>64</dim>
					<dim>30</dim>
					<dim>30</dim>
				</port>
			</input>
			<output>
				<port id="2" names="MobilenetV2/expanded_conv_10/input:0,MobilenetV2/expanded_conv_9/add:0,MobilenetV2/expanded_conv_9/output:0" precision="FP16">
					<dim>1</dim>
					<dim>64</dim>
					<dim>30</dim>
					<dim>30</dim>
				</port>
			</output>
		</layer>
		<layer id="257" name="MobilenetV2/expanded_conv_10/expand/BatchNorm/FusedBatchNormV3/mean/Fused_Mul__copy" type="Const" version="opset1">
			<data element_type="f16" offset="1351810" shape="384,64,1,1" size="49152" />
			<output>
				<port id="0" names="MobilenetV2/expanded_conv_10/expand/weights/read:0" precision="FP16">
					<dim>384</dim>
					<dim>64</dim>
					<dim>1</dim>
					<dim>1</dim>
				</port>
			</output>
		</layer>
		<layer id="258" name="MobilenetV2/expanded_conv_10/expand/Conv2D" type="Convolution" version="opset1">
			<data auto_pad="same_upper" dilations="1,1" pads_begin="0,0" pads_end="0,0" strides="1,1" />
			<input>
				<port id="0">
					<dim>1</dim>
					<dim>64</dim>
					<dim>30</dim>
					<dim>30</dim>
				</port>
				<port id="1">
					<dim>384</dim>
					<dim>64</dim>
					<dim>1</dim>
					<dim>1</dim>
				</port>
			</input>
			<output>
				<port id="2" precision="FP16">
					<dim>1</dim>
					<dim>384</dim>
					<dim>30</dim>
					<dim>30</dim>
				</port>
			</output>
		</layer>
		<layer id="259" name="MobilenetV2/expanded_conv_10/expand/BatchNorm/FusedBatchNormV3/variance/Fused_Add_" type="Add" version="opset1">
			<data auto_broadcast="numpy" />
			<input>
				<port id="0">
					<dim>1</dim>
					<dim>384</dim>
					<dim>30</dim>
					<dim>30</dim>
				</port>
				<port id="1">
					<dim>1</dim>
					<dim>384</dim>
					<dim>1</dim>
					<dim>1</dim>
				</port>
			</input>
			<output>
				<port id="2" names="MobilenetV2/expanded_conv_10/expand/BatchNorm/FusedBatchNormV3:0" precision="FP16">
					<dim>1</dim>
					<dim>384</dim>
					<dim>30</dim>
					<dim>30</dim>
				</port>
			</output>
		</layer>
		<layer id="260" name="MobilenetV2/expanded_conv_10/expand/Relu6" type="Clamp" version="opset1">
			<data max="6.0" min="0.0" />
			<input>
				<port id="0">
					<dim>1</dim>
					<dim>384</dim>
					<dim>30</dim>
					<dim>30</dim>
				</port>
			</input>
			<output>
				<port id="1" names="MobilenetV2/expanded_conv_10/expand/Relu6:0,MobilenetV2/expanded_conv_10/expansion_output:0" precision="FP16">
					<dim>1</dim>
					<dim>384</dim>
					<dim>30</dim>
					<dim>30</dim>
				</port>
			</output>
		</layer>
		<layer id="261" name="MobilenetV2/expanded_conv_10/depthwise/BatchNorm/FusedBatchNormV3/mean/Fused_Mul__copy" type="Const" version="opset1">
			<data element_type="f16" offset="1400962" shape="384,1,1,3,3" size="6912" />
			<output>
				<port id="0" names="MobilenetV2/expanded_conv_10/depthwise/depthwise_weights/read:0" precision="FP16">
					<dim>384</dim>
					<dim>1</dim>
					<dim>1</dim>
					<dim>3</dim>
					<dim>3</dim>
				</port>
			</output>
		</layer>
		<layer id="262" name="MobilenetV2/expanded_conv_10/depthwise/depthwise" type="GroupConvolution" version="opset1">
			<data auto_pad="explicit" dilations="2,2" pads_begin="2,2" pads_end="2,2" strides="1,1" />
			<input>
				<port id="0">
					<dim>1</dim>
					<dim>384</dim>
					<dim>30</dim>
					<dim>30</dim>
				</port>
				<port id="1">
					<dim>384</dim>
					<dim>1</dim>
					<dim>1</dim>
					<dim>3</dim>
					<dim>3</dim>
				</port>
			</input>
			<output>
				<port id="2" precision="FP16">
					<dim>1</dim>
					<dim>384</dim>
					<dim>30</dim>
					<dim>30</dim>
				</port>
			</output>
		</layer>
		<layer id="263" name="MobilenetV2/expanded_conv_10/depthwise/BatchNorm/FusedBatchNormV3/variance/Fused_Add_" type="Add" version="opset1">
			<data auto_broadcast="numpy" />
			<input>
				<port id="0">
					<dim>1</dim>
					<dim>384</dim>
					<dim>30</dim>
					<dim>30</dim>
				</port>
				<port id="1">
					<dim>1</dim>
					<dim>384</dim>
					<dim>1</dim>
					<dim>1</dim>
				</port>
			</input>
			<output>
				<port id="2" names="MobilenetV2/expanded_conv_10/depthwise/BatchNorm/FusedBatchNormV3:0" precision="FP16">
					<dim>1</dim>
					<dim>384</dim>
					<dim>30</dim>
					<dim>30</dim>
				</port>
			</output>
		</layer>
		<layer id="264" name="MobilenetV2/expanded_conv_10/depthwise/Relu6" type="Clamp" version="opset1">
			<data max="6.0" min="0.0" />
			<input>
				<port id="0">
					<dim>1</dim>
					<dim>384</dim>
					<dim>30</dim>
					<dim>30</dim>
				</port>
			</input>
			<output>
				<port id="1" names="MobilenetV2/expanded_conv_10/depthwise/Relu6:0,MobilenetV2/expanded_conv_10/depthwise_output:0" precision="FP16">
					<dim>1</dim>
					<dim>384</dim>
					<dim>30</dim>
					<dim>30</dim>
				</port>
			</output>
		</layer>
		<layer id="265" name="MobilenetV2/expanded_conv_10/project/Conv2D" type="Convolution" version="opset1">
			<data auto_pad="same_upper" dilations="1,1" pads_begin="0,0" pads_end="0,0" strides="1,1" />
			<input>
				<port id="0">
					<dim>1</dim>
					<dim>384</dim>
					<dim>30</dim>
					<dim>30</dim>
				</port>
				<port id="1">
					<dim>96</dim>
					<dim>384</dim>
					<dim>1</dim>
					<dim>1</dim>
				</port>
			</input>
			<output>
				<port id="2" precision="FP16">
					<dim>1</dim>
					<dim>96</dim>
					<dim>30</dim>
					<dim>30</dim>
				</port>
			</output>
		</layer>
		<layer id="266" name="MobilenetV2/expanded_conv_10/project/BatchNorm/FusedBatchNormV3/variance/Fused_Add_" type="Add" version="opset1">
			<data auto_broadcast="numpy" />
			<input>
				<port id="0">
					<dim>1</dim>
					<dim>96</dim>
					<dim>30</dim>
					<dim>30</dim>
				</port>
				<port id="1">
					<dim>1</dim>
					<dim>96</dim>
					<dim>1</dim>
					<dim>1</dim>
				</port>
			</input>
			<output>
				<port id="2" names="MobilenetV2/expanded_conv_10/output:0,MobilenetV2/expanded_conv_10/project/BatchNorm/FusedBatchNormV3:0,MobilenetV2/expanded_conv_10/project/Identity:0,MobilenetV2/expanded_conv_11/input:0" precision="FP16">
					<dim>1</dim>
					<dim>96</dim>
					<dim>30</dim>
					<dim>30</dim>
				</port>
			</output>
		</layer>
		<layer id="267" name="data_add_1732117326" type="Const" version="opset1">
			<data element_type="f16" offset="1407874" shape="1,96,1,1" size="192" />
			<output>
				<port id="0" precision="FP16">
					<dim>1</dim>
					<dim>96</dim>
					<dim>1</dim>
					<dim>1</dim>
				</port>
			</output>
		</layer>
		<layer id="268" name="MobilenetV2/expanded_conv_11/project/BatchNorm/FusedBatchNormV3/mean/Fused_Mul__copy" type="Const" version="opset1">
			<data element_type="f16" offset="1408066" shape="96,576,1,1" size="110592" />
			<output>
				<port id="0" names="MobilenetV2/expanded_conv_11/project/weights/read:0" precision="FP16">
					<dim>96</dim>
					<dim>576</dim>
					<dim>1</dim>
					<dim>1</dim>
				</port>
			</output>
		</layer>
		<layer id="269" name="data_add_1731317318" type="Const" version="opset1">
			<data element_type="f16" offset="1518658" shape="1,576,1,1" size="1152" />
			<output>
				<port id="0" precision="FP16">
					<dim>1</dim>
					<dim>576</dim>
					<dim>1</dim>
					<dim>1</dim>
				</port>
			</output>
		</layer>
		<layer id="270" name="data_add_1730517310" type="Const" version="opset1">
			<data element_type="f16" offset="1519810" shape="1,576,1,1" size="1152" />
			<output>
				<port id="0" precision="FP16">
					<dim>1</dim>
					<dim>576</dim>
					<dim>1</dim>
					<dim>1</dim>
				</port>
			</output>
		</layer>
		<layer id="271" name="MobilenetV2/expanded_conv_11/expand/BatchNorm/FusedBatchNormV3/mean/Fused_Mul__copy" type="Const" version="opset1">
			<data element_type="f16" offset="1520962" shape="576,96,1,1" size="110592" />
			<output>
				<port id="0" names="MobilenetV2/expanded_conv_11/expand/weights/read:0" precision="FP16">
					<dim>576</dim>
					<dim>96</dim>
					<dim>1</dim>
					<dim>1</dim>
				</port>
			</output>
		</layer>
		<layer id="272" name="MobilenetV2/expanded_conv_11/expand/Conv2D" type="Convolution" version="opset1">
			<data auto_pad="same_upper" dilations="1,1" pads_begin="0,0" pads_end="0,0" strides="1,1" />
			<input>
				<port id="0">
					<dim>1</dim>
					<dim>96</dim>
					<dim>30</dim>
					<dim>30</dim>
				</port>
				<port id="1">
					<dim>576</dim>
					<dim>96</dim>
					<dim>1</dim>
					<dim>1</dim>
				</port>
			</input>
			<output>
				<port id="2" precision="FP16">
					<dim>1</dim>
					<dim>576</dim>
					<dim>30</dim>
					<dim>30</dim>
				</port>
			</output>
		</layer>
		<layer id="273" name="MobilenetV2/expanded_conv_11/expand/BatchNorm/FusedBatchNormV3/variance/Fused_Add_" type="Add" version="opset1">
			<data auto_broadcast="numpy" />
			<input>
				<port id="0">
					<dim>1</dim>
					<dim>576</dim>
					<dim>30</dim>
					<dim>30</dim>
				</port>
				<port id="1">
					<dim>1</dim>
					<dim>576</dim>
					<dim>1</dim>
					<dim>1</dim>
				</port>
			</input>
			<output>
				<port id="2" names="MobilenetV2/expanded_conv_11/expand/BatchNorm/FusedBatchNormV3:0" precision="FP16">
					<dim>1</dim>
					<dim>576</dim>
					<dim>30</dim>
					<dim>30</dim>
				</port>
			</output>
		</layer>
		<layer id="274" name="MobilenetV2/expanded_conv_11/expand/Relu6" type="Clamp" version="opset1">
			<data max="6.0" min="0.0" />
			<input>
				<port id="0">
					<dim>1</dim>
					<dim>576</dim>
					<dim>30</dim>
					<dim>30</dim>
				</port>
			</input>
			<output>
				<port id="1" names="MobilenetV2/expanded_conv_11/expand/Relu6:0,MobilenetV2/expanded_conv_11/expansion_output:0" precision="FP16">
					<dim>1</dim>
					<dim>576</dim>
					<dim>30</dim>
					<dim>30</dim>
				</port>
			</output>
		</layer>
		<layer id="275" name="MobilenetV2/expanded_conv_11/depthwise/BatchNorm/FusedBatchNormV3/mean/Fused_Mul__copy" type="Const" version="opset1">
			<data element_type="f16" offset="1631554" shape="576,1,1,3,3" size="10368" />
			<output>
				<port id="0" names="MobilenetV2/expanded_conv_11/depthwise/depthwise_weights/read:0" precision="FP16">
					<dim>576</dim>
					<dim>1</dim>
					<dim>1</dim>
					<dim>3</dim>
					<dim>3</dim>
				</port>
			</output>
		</layer>
		<layer id="276" name="MobilenetV2/expanded_conv_11/depthwise/depthwise" type="GroupConvolution" version="opset1">
			<data auto_pad="explicit" dilations="2,2" pads_begin="2,2" pads_end="2,2" strides="1,1" />
			<input>
				<port id="0">
					<dim>1</dim>
					<dim>576</dim>
					<dim>30</dim>
					<dim>30</dim>
				</port>
				<port id="1">
					<dim>576</dim>
					<dim>1</dim>
					<dim>1</dim>
					<dim>3</dim>
					<dim>3</dim>
				</port>
			</input>
			<output>
				<port id="2" precision="FP16">
					<dim>1</dim>
					<dim>576</dim>
					<dim>30</dim>
					<dim>30</dim>
				</port>
			</output>
		</layer>
		<layer id="277" name="MobilenetV2/expanded_conv_11/depthwise/BatchNorm/FusedBatchNormV3/variance/Fused_Add_" type="Add" version="opset1">
			<data auto_broadcast="numpy" />
			<input>
				<port id="0">
					<dim>1</dim>
					<dim>576</dim>
					<dim>30</dim>
					<dim>30</dim>
				</port>
				<port id="1">
					<dim>1</dim>
					<dim>576</dim>
					<dim>1</dim>
					<dim>1</dim>
				</port>
			</input>
			<output>
				<port id="2" names="MobilenetV2/expanded_conv_11/depthwise/BatchNorm/FusedBatchNormV3:0" precision="FP16">
					<dim>1</dim>
					<dim>576</dim>
					<dim>30</dim>
					<dim>30</dim>
				</port>
			</output>
		</layer>
		<layer id="278" name="MobilenetV2/expanded_conv_11/depthwise/Relu6" type="Clamp" version="opset1">
			<data max="6.0" min="0.0" />
			<input>
				<port id="0">
					<dim>1</dim>
					<dim>576</dim>
					<dim>30</dim>
					<dim>30</dim>
				</port>
			</input>
			<output>
				<port id="1" names="MobilenetV2/expanded_conv_11/depthwise/Relu6:0,MobilenetV2/expanded_conv_11/depthwise_output:0" precision="FP16">
					<dim>1</dim>
					<dim>576</dim>
					<dim>30</dim>
					<dim>30</dim>
				</port>
			</output>
		</layer>
		<layer id="279" name="MobilenetV2/expanded_conv_11/project/Conv2D" type="Convolution" version="opset1">
			<data auto_pad="same_upper" dilations="1,1" pads_begin="0,0" pads_end="0,0" strides="1,1" />
			<input>
				<port id="0">
					<dim>1</dim>
					<dim>576</dim>
					<dim>30</dim>
					<dim>30</dim>
				</port>
				<port id="1">
					<dim>96</dim>
					<dim>576</dim>
					<dim>1</dim>
					<dim>1</dim>
				</port>
			</input>
			<output>
				<port id="2" precision="FP16">
					<dim>1</dim>
					<dim>96</dim>
					<dim>30</dim>
					<dim>30</dim>
				</port>
			</output>
		</layer>
		<layer id="280" name="MobilenetV2/expanded_conv_11/project/BatchNorm/FusedBatchNormV3/variance/Fused_Add_" type="Add" version="opset1">
			<data auto_broadcast="numpy" />
			<input>
				<port id="0">
					<dim>1</dim>
					<dim>96</dim>
					<dim>30</dim>
					<dim>30</dim>
				</port>
				<port id="1">
					<dim>1</dim>
					<dim>96</dim>
					<dim>1</dim>
					<dim>1</dim>
				</port>
			</input>
			<output>
				<port id="2" names="MobilenetV2/expanded_conv_11/project/BatchNorm/FusedBatchNormV3:0,MobilenetV2/expanded_conv_11/project/Identity:0" precision="FP16">
					<dim>1</dim>
					<dim>96</dim>
					<dim>30</dim>
					<dim>30</dim>
				</port>
			</output>
		</layer>
		<layer id="281" name="MobilenetV2/expanded_conv_11/add" type="Add" version="opset1">
			<data auto_broadcast="numpy" />
			<input>
				<port id="0">
					<dim>1</dim>
					<dim>96</dim>
					<dim>30</dim>
					<dim>30</dim>
				</port>
				<port id="1">
					<dim>1</dim>
					<dim>96</dim>
					<dim>30</dim>
					<dim>30</dim>
				</port>
			</input>
			<output>
				<port id="2" names="MobilenetV2/expanded_conv_11/add:0,MobilenetV2/expanded_conv_11/output:0,MobilenetV2/expanded_conv_12/input:0" precision="FP16">
					<dim>1</dim>
					<dim>96</dim>
					<dim>30</dim>
					<dim>30</dim>
				</port>
			</output>
		</layer>
		<layer id="282" name="data_add_1734517350" type="Const" version="opset1">
			<data element_type="f16" offset="1641922" shape="1,96,1,1" size="192" />
			<output>
				<port id="0" precision="FP16">
					<dim>1</dim>
					<dim>96</dim>
					<dim>1</dim>
					<dim>1</dim>
				</port>
			</output>
		</layer>
		<layer id="283" name="MobilenetV2/expanded_conv_12/project/BatchNorm/FusedBatchNormV3/mean/Fused_Mul__copy" type="Const" version="opset1">
			<data element_type="f16" offset="1642114" shape="96,576,1,1" size="110592" />
			<output>
				<port id="0" names="MobilenetV2/expanded_conv_12/project/weights/read:0" precision="FP16">
					<dim>96</dim>
					<dim>576</dim>
					<dim>1</dim>
					<dim>1</dim>
				</port>
			</output>
		</layer>
		<layer id="284" name="data_add_1733717342" type="Const" version="opset1">
			<data element_type="f16" offset="1752706" shape="1,576,1,1" size="1152" />
			<output>
				<port id="0" precision="FP16">
					<dim>1</dim>
					<dim>576</dim>
					<dim>1</dim>
					<dim>1</dim>
				</port>
			</output>
		</layer>
		<layer id="285" name="data_add_1732917334" type="Const" version="opset1">
			<data element_type="f16" offset="1753858" shape="1,576,1,1" size="1152" />
			<output>
				<port id="0" precision="FP16">
					<dim>1</dim>
					<dim>576</dim>
					<dim>1</dim>
					<dim>1</dim>
				</port>
			</output>
		</layer>
		<layer id="286" name="MobilenetV2/expanded_conv_12/expand/BatchNorm/FusedBatchNormV3/mean/Fused_Mul__copy" type="Const" version="opset1">
			<data element_type="f16" offset="1755010" shape="576,96,1,1" size="110592" />
			<output>
				<port id="0" names="MobilenetV2/expanded_conv_12/expand/weights/read:0" precision="FP16">
					<dim>576</dim>
					<dim>96</dim>
					<dim>1</dim>
					<dim>1</dim>
				</port>
			</output>
		</layer>
		<layer id="287" name="MobilenetV2/expanded_conv_12/expand/Conv2D" type="Convolution" version="opset1">
			<data auto_pad="same_upper" dilations="1,1" pads_begin="0,0" pads_end="0,0" strides="1,1" />
			<input>
				<port id="0">
					<dim>1</dim>
					<dim>96</dim>
					<dim>30</dim>
					<dim>30</dim>
				</port>
				<port id="1">
					<dim>576</dim>
					<dim>96</dim>
					<dim>1</dim>
					<dim>1</dim>
				</port>
			</input>
			<output>
				<port id="2" precision="FP16">
					<dim>1</dim>
					<dim>576</dim>
					<dim>30</dim>
					<dim>30</dim>
				</port>
			</output>
		</layer>
		<layer id="288" name="MobilenetV2/expanded_conv_12/expand/BatchNorm/FusedBatchNormV3/variance/Fused_Add_" type="Add" version="opset1">
			<data auto_broadcast="numpy" />
			<input>
				<port id="0">
					<dim>1</dim>
					<dim>576</dim>
					<dim>30</dim>
					<dim>30</dim>
				</port>
				<port id="1">
					<dim>1</dim>
					<dim>576</dim>
					<dim>1</dim>
					<dim>1</dim>
				</port>
			</input>
			<output>
				<port id="2" names="MobilenetV2/expanded_conv_12/expand/BatchNorm/FusedBatchNormV3:0" precision="FP16">
					<dim>1</dim>
					<dim>576</dim>
					<dim>30</dim>
					<dim>30</dim>
				</port>
			</output>
		</layer>
		<layer id="289" name="MobilenetV2/expanded_conv_12/expand/Relu6" type="Clamp" version="opset1">
			<data max="6.0" min="0.0" />
			<input>
				<port id="0">
					<dim>1</dim>
					<dim>576</dim>
					<dim>30</dim>
					<dim>30</dim>
				</port>
			</input>
			<output>
				<port id="1" names="MobilenetV2/expanded_conv_12/expand/Relu6:0,MobilenetV2/expanded_conv_12/expansion_output:0" precision="FP16">
					<dim>1</dim>
					<dim>576</dim>
					<dim>30</dim>
					<dim>30</dim>
				</port>
			</output>
		</layer>
		<layer id="290" name="MobilenetV2/expanded_conv_12/depthwise/BatchNorm/FusedBatchNormV3/mean/Fused_Mul__copy" type="Const" version="opset1">
			<data element_type="f16" offset="1865602" shape="576,1,1,3,3" size="10368" />
			<output>
				<port id="0" names="MobilenetV2/expanded_conv_12/depthwise/depthwise_weights/read:0" precision="FP16">
					<dim>576</dim>
					<dim>1</dim>
					<dim>1</dim>
					<dim>3</dim>
					<dim>3</dim>
				</port>
			</output>
		</layer>
		<layer id="291" name="MobilenetV2/expanded_conv_12/depthwise/depthwise" type="GroupConvolution" version="opset1">
			<data auto_pad="explicit" dilations="2,2" pads_begin="2,2" pads_end="2,2" strides="1,1" />
			<input>
				<port id="0">
					<dim>1</dim>
					<dim>576</dim>
					<dim>30</dim>
					<dim>30</dim>
				</port>
				<port id="1">
					<dim>576</dim>
					<dim>1</dim>
					<dim>1</dim>
					<dim>3</dim>
					<dim>3</dim>
				</port>
			</input>
			<output>
				<port id="2" precision="FP16">
					<dim>1</dim>
					<dim>576</dim>
					<dim>30</dim>
					<dim>30</dim>
				</port>
			</output>
		</layer>
		<layer id="292" name="MobilenetV2/expanded_conv_12/depthwise/BatchNorm/FusedBatchNormV3/variance/Fused_Add_" type="Add" version="opset1">
			<data auto_broadcast="numpy" />
			<input>
				<port id="0">
					<dim>1</dim>
					<dim>576</dim>
					<dim>30</dim>
					<dim>30</dim>
				</port>
				<port id="1">
					<dim>1</dim>
					<dim>576</dim>
					<dim>1</dim>
					<dim>1</dim>
				</port>
			</input>
			<output>
				<port id="2" names="MobilenetV2/expanded_conv_12/depthwise/BatchNorm/FusedBatchNormV3:0" precision="FP16">
					<dim>1</dim>
					<dim>576</dim>
					<dim>30</dim>
					<dim>30</dim>
				</port>
			</output>
		</layer>
		<layer id="293" name="MobilenetV2/expanded_conv_12/depthwise/Relu6" type="Clamp" version="opset1">
			<data max="6.0" min="0.0" />
			<input>
				<port id="0">
					<dim>1</dim>
					<dim>576</dim>
					<dim>30</dim>
					<dim>30</dim>
				</port>
			</input>
			<output>
				<port id="1" names="MobilenetV2/expanded_conv_12/depthwise/Relu6:0,MobilenetV2/expanded_conv_12/depthwise_output:0" precision="FP16">
					<dim>1</dim>
					<dim>576</dim>
					<dim>30</dim>
					<dim>30</dim>
				</port>
			</output>
		</layer>
		<layer id="294" name="MobilenetV2/expanded_conv_12/project/Conv2D" type="Convolution" version="opset1">
			<data auto_pad="same_upper" dilations="1,1" pads_begin="0,0" pads_end="0,0" strides="1,1" />
			<input>
				<port id="0">
					<dim>1</dim>
					<dim>576</dim>
					<dim>30</dim>
					<dim>30</dim>
				</port>
				<port id="1">
					<dim>96</dim>
					<dim>576</dim>
					<dim>1</dim>
					<dim>1</dim>
				</port>
			</input>
			<output>
				<port id="2" precision="FP16">
					<dim>1</dim>
					<dim>96</dim>
					<dim>30</dim>
					<dim>30</dim>
				</port>
			</output>
		</layer>
		<layer id="295" name="MobilenetV2/expanded_conv_12/project/BatchNorm/FusedBatchNormV3/variance/Fused_Add_" type="Add" version="opset1">
			<data auto_broadcast="numpy" />
			<input>
				<port id="0">
					<dim>1</dim>
					<dim>96</dim>
					<dim>30</dim>
					<dim>30</dim>
				</port>
				<port id="1">
					<dim>1</dim>
					<dim>96</dim>
					<dim>1</dim>
					<dim>1</dim>
				</port>
			</input>
			<output>
				<port id="2" names="MobilenetV2/expanded_conv_12/project/BatchNorm/FusedBatchNormV3:0,MobilenetV2/expanded_conv_12/project/Identity:0" precision="FP16">
					<dim>1</dim>
					<dim>96</dim>
					<dim>30</dim>
					<dim>30</dim>
				</port>
			</output>
		</layer>
		<layer id="296" name="MobilenetV2/expanded_conv_12/add" type="Add" version="opset1">
			<data auto_broadcast="numpy" />
			<input>
				<port id="0">
					<dim>1</dim>
					<dim>96</dim>
					<dim>30</dim>
					<dim>30</dim>
				</port>
				<port id="1">
					<dim>1</dim>
					<dim>96</dim>
					<dim>30</dim>
					<dim>30</dim>
				</port>
			</input>
			<output>
				<port id="2" names="MobilenetV2/expanded_conv_12/add:0,MobilenetV2/expanded_conv_12/output:0,MobilenetV2/expanded_conv_13/input:0" precision="FP16">
					<dim>1</dim>
					<dim>96</dim>
					<dim>30</dim>
					<dim>30</dim>
				</port>
			</output>
		</layer>
		<layer id="297" name="MobilenetV2/expanded_conv_13/expand/BatchNorm/FusedBatchNormV3/mean/Fused_Mul__copy" type="Const" version="opset1">
			<data element_type="f16" offset="1875970" shape="576,96,1,1" size="110592" />
			<output>
				<port id="0" names="MobilenetV2/expanded_conv_13/expand/weights/read:0" precision="FP16">
					<dim>576</dim>
					<dim>96</dim>
					<dim>1</dim>
					<dim>1</dim>
				</port>
			</output>
		</layer>
		<layer id="298" name="MobilenetV2/expanded_conv_13/expand/Conv2D" type="Convolution" version="opset1">
			<data auto_pad="same_upper" dilations="1,1" pads_begin="0,0" pads_end="0,0" strides="1,1" />
			<input>
				<port id="0">
					<dim>1</dim>
					<dim>96</dim>
					<dim>30</dim>
					<dim>30</dim>
				</port>
				<port id="1">
					<dim>576</dim>
					<dim>96</dim>
					<dim>1</dim>
					<dim>1</dim>
				</port>
			</input>
			<output>
				<port id="2" precision="FP16">
					<dim>1</dim>
					<dim>576</dim>
					<dim>30</dim>
					<dim>30</dim>
				</port>
			</output>
		</layer>
		<layer id="299" name="MobilenetV2/expanded_conv_13/expand/BatchNorm/FusedBatchNormV3/variance/Fused_Add_" type="Add" version="opset1">
			<data auto_broadcast="numpy" />
			<input>
				<port id="0">
					<dim>1</dim>
					<dim>576</dim>
					<dim>30</dim>
					<dim>30</dim>
				</port>
				<port id="1">
					<dim>1</dim>
					<dim>576</dim>
					<dim>1</dim>
					<dim>1</dim>
				</port>
			</input>
			<output>
				<port id="2" names="MobilenetV2/expanded_conv_13/expand/BatchNorm/FusedBatchNormV3:0" precision="FP16">
					<dim>1</dim>
					<dim>576</dim>
					<dim>30</dim>
					<dim>30</dim>
				</port>
			</output>
		</layer>
		<layer id="300" name="MobilenetV2/expanded_conv_13/expand/Relu6" type="Clamp" version="opset1">
			<data max="6.0" min="0.0" />
			<input>
				<port id="0">
					<dim>1</dim>
					<dim>576</dim>
					<dim>30</dim>
					<dim>30</dim>
				</port>
			</input>
			<output>
				<port id="1" names="MobilenetV2/expanded_conv_13/expand/Relu6:0,MobilenetV2/expanded_conv_13/expansion_output:0" precision="FP16">
					<dim>1</dim>
					<dim>576</dim>
					<dim>30</dim>
					<dim>30</dim>
				</port>
			</output>
		</layer>
		<layer id="301" name="MobilenetV2/expanded_conv_13/depthwise/BatchNorm/FusedBatchNormV3/mean/Fused_Mul__copy" type="Const" version="opset1">
			<data element_type="f16" offset="1986562" shape="576,1,1,3,3" size="10368" />
			<output>
				<port id="0" names="MobilenetV2/expanded_conv_13/depthwise/depthwise_weights/read:0" precision="FP16">
					<dim>576</dim>
					<dim>1</dim>
					<dim>1</dim>
					<dim>3</dim>
					<dim>3</dim>
				</port>
			</output>
		</layer>
		<layer id="302" name="MobilenetV2/expanded_conv_13/depthwise/depthwise" type="GroupConvolution" version="opset1">
			<data auto_pad="explicit" dilations="2,2" pads_begin="2,2" pads_end="2,2" strides="1,1" />
			<input>
				<port id="0">
					<dim>1</dim>
					<dim>576</dim>
					<dim>30</dim>
					<dim>30</dim>
				</port>
				<port id="1">
					<dim>576</dim>
					<dim>1</dim>
					<dim>1</dim>
					<dim>3</dim>
					<dim>3</dim>
				</port>
			</input>
			<output>
				<port id="2" precision="FP16">
					<dim>1</dim>
					<dim>576</dim>
					<dim>30</dim>
					<dim>30</dim>
				</port>
			</output>
		</layer>
		<layer id="303" name="MobilenetV2/expanded_conv_13/depthwise/BatchNorm/FusedBatchNormV3/variance/Fused_Add_" type="Add" version="opset1">
			<data auto_broadcast="numpy" />
			<input>
				<port id="0">
					<dim>1</dim>
					<dim>576</dim>
					<dim>30</dim>
					<dim>30</dim>
				</port>
				<port id="1">
					<dim>1</dim>
					<dim>576</dim>
					<dim>1</dim>
					<dim>1</dim>
				</port>
			</input>
			<output>
				<port id="2" names="MobilenetV2/expanded_conv_13/depthwise/BatchNorm/FusedBatchNormV3:0" precision="FP16">
					<dim>1</dim>
					<dim>576</dim>
					<dim>30</dim>
					<dim>30</dim>
				</port>
			</output>
		</layer>
		<layer id="304" name="MobilenetV2/expanded_conv_13/depthwise/Relu6" type="Clamp" version="opset1">
			<data max="6.0" min="0.0" />
			<input>
				<port id="0">
					<dim>1</dim>
					<dim>576</dim>
					<dim>30</dim>
					<dim>30</dim>
				</port>
			</input>
			<output>
				<port id="1" names="MobilenetV2/expanded_conv_13/depthwise/Relu6:0,MobilenetV2/expanded_conv_13/depthwise_output:0" precision="FP16">
					<dim>1</dim>
					<dim>576</dim>
					<dim>30</dim>
					<dim>30</dim>
				</port>
			</output>
		</layer>
		<layer id="305" name="MobilenetV2/expanded_conv_13/project/Conv2D" type="Convolution" version="opset1">
			<data auto_pad="same_upper" dilations="1,1" pads_begin="0,0" pads_end="0,0" strides="1,1" />
			<input>
				<port id="0">
					<dim>1</dim>
					<dim>576</dim>
					<dim>30</dim>
					<dim>30</dim>
				</port>
				<port id="1">
					<dim>160</dim>
					<dim>576</dim>
					<dim>1</dim>
					<dim>1</dim>
				</port>
			</input>
			<output>
				<port id="2" precision="FP16">
					<dim>1</dim>
					<dim>160</dim>
					<dim>30</dim>
					<dim>30</dim>
				</port>
			</output>
		</layer>
		<layer id="306" name="MobilenetV2/expanded_conv_13/project/BatchNorm/FusedBatchNormV3/variance/Fused_Add_" type="Add" version="opset1">
			<data auto_broadcast="numpy" />
			<input>
				<port id="0">
					<dim>1</dim>
					<dim>160</dim>
					<dim>30</dim>
					<dim>30</dim>
				</port>
				<port id="1">
					<dim>1</dim>
					<dim>160</dim>
					<dim>1</dim>
					<dim>1</dim>
				</port>
			</input>
			<output>
				<port id="2" names="MobilenetV2/expanded_conv_13/output:0,MobilenetV2/expanded_conv_13/project/BatchNorm/FusedBatchNormV3:0,MobilenetV2/expanded_conv_13/project/Identity:0,MobilenetV2/expanded_conv_14/input:0" precision="FP16">
					<dim>1</dim>
					<dim>160</dim>
					<dim>30</dim>
					<dim>30</dim>
				</port>
			</output>
		</layer>
		<layer id="307" name="data_add_1739317398" type="Const" version="opset1">
			<data element_type="f16" offset="1996930" shape="1,160,1,1" size="320" />
			<output>
				<port id="0" precision="FP16">
					<dim>1</dim>
					<dim>160</dim>
					<dim>1</dim>
					<dim>1</dim>
				</port>
			</output>
		</layer>
		<layer id="308" name="MobilenetV2/expanded_conv_14/project/BatchNorm/FusedBatchNormV3/mean/Fused_Mul__copy" type="Const" version="opset1">
			<data element_type="f16" offset="1997250" shape="160,960,1,1" size="307200" />
			<output>
				<port id="0" names="MobilenetV2/expanded_conv_14/project/weights/read:0" precision="FP16">
					<dim>160</dim>
					<dim>960</dim>
					<dim>1</dim>
					<dim>1</dim>
				</port>
			</output>
		</layer>
		<layer id="309" name="data_add_1738517390" type="Const" version="opset1">
			<data element_type="f16" offset="2304450" shape="1,960,1,1" size="1920" />
			<output>
				<port id="0" precision="FP16">
					<dim>1</dim>
					<dim>960</dim>
					<dim>1</dim>
					<dim>1</dim>
				</port>
			</output>
		</layer>
		<layer id="310" name="data_add_1737717382" type="Const" version="opset1">
			<data element_type="f16" offset="2306370" shape="1,960,1,1" size="1920" />
			<output>
				<port id="0" precision="FP16">
					<dim>1</dim>
					<dim>960</dim>
					<dim>1</dim>
					<dim>1</dim>
				</port>
			</output>
		</layer>
		<layer id="311" name="MobilenetV2/expanded_conv_14/expand/BatchNorm/FusedBatchNormV3/mean/Fused_Mul__copy" type="Const" version="opset1">
			<data element_type="f16" offset="2308290" shape="960,160,1,1" size="307200" />
			<output>
				<port id="0" names="MobilenetV2/expanded_conv_14/expand/weights/read:0" precision="FP16">
					<dim>960</dim>
					<dim>160</dim>
					<dim>1</dim>
					<dim>1</dim>
				</port>
			</output>
		</layer>
		<layer id="312" name="MobilenetV2/expanded_conv_14/expand/Conv2D" type="Convolution" version="opset1">
			<data auto_pad="same_upper" dilations="1,1" pads_begin="0,0" pads_end="0,0" strides="1,1" />
			<input>
				<port id="0">
					<dim>1</dim>
					<dim>160</dim>
					<dim>30</dim>
					<dim>30</dim>
				</port>
				<port id="1">
					<dim>960</dim>
					<dim>160</dim>
					<dim>1</dim>
					<dim>1</dim>
				</port>
			</input>
			<output>
				<port id="2" precision="FP16">
					<dim>1</dim>
					<dim>960</dim>
					<dim>30</dim>
					<dim>30</dim>
				</port>
			</output>
		</layer>
		<layer id="313" name="MobilenetV2/expanded_conv_14/expand/BatchNorm/FusedBatchNormV3/variance/Fused_Add_" type="Add" version="opset1">
			<data auto_broadcast="numpy" />
			<input>
				<port id="0">
					<dim>1</dim>
					<dim>960</dim>
					<dim>30</dim>
					<dim>30</dim>
				</port>
				<port id="1">
					<dim>1</dim>
					<dim>960</dim>
					<dim>1</dim>
					<dim>1</dim>
				</port>
			</input>
			<output>
				<port id="2" names="MobilenetV2/expanded_conv_14/expand/BatchNorm/FusedBatchNormV3:0" precision="FP16">
					<dim>1</dim>
					<dim>960</dim>
					<dim>30</dim>
					<dim>30</dim>
				</port>
			</output>
		</layer>
		<layer id="314" name="MobilenetV2/expanded_conv_14/expand/Relu6" type="Clamp" version="opset1">
			<data max="6.0" min="0.0" />
			<input>
				<port id="0">
					<dim>1</dim>
					<dim>960</dim>
					<dim>30</dim>
					<dim>30</dim>
				</port>
			</input>
			<output>
				<port id="1" names="MobilenetV2/expanded_conv_14/expand/Relu6:0,MobilenetV2/expanded_conv_14/expansion_output:0" precision="FP16">
					<dim>1</dim>
					<dim>960</dim>
					<dim>30</dim>
					<dim>30</dim>
				</port>
			</output>
		</layer>
		<layer id="315" name="MobilenetV2/expanded_conv_14/depthwise/BatchNorm/FusedBatchNormV3/mean/Fused_Mul__copy" type="Const" version="opset1">
			<data element_type="f16" offset="2615490" shape="960,1,1,3,3" size="17280" />
			<output>
				<port id="0" names="MobilenetV2/expanded_conv_14/depthwise/depthwise_weights/read:0" precision="FP16">
					<dim>960</dim>
					<dim>1</dim>
					<dim>1</dim>
					<dim>3</dim>
					<dim>3</dim>
				</port>
			</output>
		</layer>
		<layer id="316" name="MobilenetV2/expanded_conv_14/depthwise/depthwise" type="GroupConvolution" version="opset1">
			<data auto_pad="explicit" dilations="4,4" pads_begin="4,4" pads_end="4,4" strides="1,1" />
			<input>
				<port id="0">
					<dim>1</dim>
					<dim>960</dim>
					<dim>30</dim>
					<dim>30</dim>
				</port>
				<port id="1">
					<dim>960</dim>
					<dim>1</dim>
					<dim>1</dim>
					<dim>3</dim>
					<dim>3</dim>
				</port>
			</input>
			<output>
				<port id="2" precision="FP16">
					<dim>1</dim>
					<dim>960</dim>
					<dim>30</dim>
					<dim>30</dim>
				</port>
			</output>
		</layer>
		<layer id="317" name="MobilenetV2/expanded_conv_14/depthwise/BatchNorm/FusedBatchNormV3/variance/Fused_Add_" type="Add" version="opset1">
			<data auto_broadcast="numpy" />
			<input>
				<port id="0">
					<dim>1</dim>
					<dim>960</dim>
					<dim>30</dim>
					<dim>30</dim>
				</port>
				<port id="1">
					<dim>1</dim>
					<dim>960</dim>
					<dim>1</dim>
					<dim>1</dim>
				</port>
			</input>
			<output>
				<port id="2" names="MobilenetV2/expanded_conv_14/depthwise/BatchNorm/FusedBatchNormV3:0" precision="FP16">
					<dim>1</dim>
					<dim>960</dim>
					<dim>30</dim>
					<dim>30</dim>
				</port>
			</output>
		</layer>
		<layer id="318" name="MobilenetV2/expanded_conv_14/depthwise/Relu6" type="Clamp" version="opset1">
			<data max="6.0" min="0.0" />
			<input>
				<port id="0">
					<dim>1</dim>
					<dim>960</dim>
					<dim>30</dim>
					<dim>30</dim>
				</port>
			</input>
			<output>
				<port id="1" names="MobilenetV2/expanded_conv_14/depthwise/Relu6:0,MobilenetV2/expanded_conv_14/depthwise_output:0" precision="FP16">
					<dim>1</dim>
					<dim>960</dim>
					<dim>30</dim>
					<dim>30</dim>
				</port>
			</output>
		</layer>
		<layer id="319" name="MobilenetV2/expanded_conv_14/project/Conv2D" type="Convolution" version="opset1">
			<data auto_pad="same_upper" dilations="1,1" pads_begin="0,0" pads_end="0,0" strides="1,1" />
			<input>
				<port id="0">
					<dim>1</dim>
					<dim>960</dim>
					<dim>30</dim>
					<dim>30</dim>
				</port>
				<port id="1">
					<dim>160</dim>
					<dim>960</dim>
					<dim>1</dim>
					<dim>1</dim>
				</port>
			</input>
			<output>
				<port id="2" precision="FP16">
					<dim>1</dim>
					<dim>160</dim>
					<dim>30</dim>
					<dim>30</dim>
				</port>
			</output>
		</layer>
		<layer id="320" name="MobilenetV2/expanded_conv_14/project/BatchNorm/FusedBatchNormV3/variance/Fused_Add_" type="Add" version="opset1">
			<data auto_broadcast="numpy" />
			<input>
				<port id="0">
					<dim>1</dim>
					<dim>160</dim>
					<dim>30</dim>
					<dim>30</dim>
				</port>
				<port id="1">
					<dim>1</dim>
					<dim>160</dim>
					<dim>1</dim>
					<dim>1</dim>
				</port>
			</input>
			<output>
				<port id="2" names="MobilenetV2/expanded_conv_14/project/BatchNorm/FusedBatchNormV3:0,MobilenetV2/expanded_conv_14/project/Identity:0" precision="FP16">
					<dim>1</dim>
					<dim>160</dim>
					<dim>30</dim>
					<dim>30</dim>
				</port>
			</output>
		</layer>
		<layer id="321" name="MobilenetV2/expanded_conv_14/add" type="Add" version="opset1">
			<data auto_broadcast="numpy" />
			<input>
				<port id="0">
					<dim>1</dim>
					<dim>160</dim>
					<dim>30</dim>
					<dim>30</dim>
				</port>
				<port id="1">
					<dim>1</dim>
					<dim>160</dim>
					<dim>30</dim>
					<dim>30</dim>
				</port>
			</input>
			<output>
				<port id="2" names="MobilenetV2/expanded_conv_14/add:0,MobilenetV2/expanded_conv_14/output:0,MobilenetV2/expanded_conv_15/input:0" precision="FP16">
					<dim>1</dim>
					<dim>160</dim>
					<dim>30</dim>
					<dim>30</dim>
				</port>
			</output>
		</layer>
		<layer id="322" name="data_add_1741717422" type="Const" version="opset1">
			<data element_type="f16" offset="2632770" shape="1,160,1,1" size="320" />
			<output>
				<port id="0" precision="FP16">
					<dim>1</dim>
					<dim>160</dim>
					<dim>1</dim>
					<dim>1</dim>
				</port>
			</output>
		</layer>
		<layer id="323" name="MobilenetV2/expanded_conv_15/project/BatchNorm/FusedBatchNormV3/mean/Fused_Mul__copy" type="Const" version="opset1">
			<data element_type="f16" offset="2633090" shape="160,960,1,1" size="307200" />
			<output>
				<port id="0" names="MobilenetV2/expanded_conv_15/project/weights/read:0" precision="FP16">
					<dim>160</dim>
					<dim>960</dim>
					<dim>1</dim>
					<dim>1</dim>
				</port>
			</output>
		</layer>
		<layer id="324" name="data_add_1740917414" type="Const" version="opset1">
			<data element_type="f16" offset="2940290" shape="1,960,1,1" size="1920" />
			<output>
				<port id="0" precision="FP16">
					<dim>1</dim>
					<dim>960</dim>
					<dim>1</dim>
					<dim>1</dim>
				</port>
			</output>
		</layer>
		<layer id="325" name="data_add_1740117406" type="Const" version="opset1">
			<data element_type="f16" offset="2942210" shape="1,960,1,1" size="1920" />
			<output>
				<port id="0" precision="FP16">
					<dim>1</dim>
					<dim>960</dim>
					<dim>1</dim>
					<dim>1</dim>
				</port>
			</output>
		</layer>
		<layer id="326" name="MobilenetV2/expanded_conv_15/expand/BatchNorm/FusedBatchNormV3/mean/Fused_Mul__copy" type="Const" version="opset1">
			<data element_type="f16" offset="2944130" shape="960,160,1,1" size="307200" />
			<output>
				<port id="0" names="MobilenetV2/expanded_conv_15/expand/weights/read:0" precision="FP16">
					<dim>960</dim>
					<dim>160</dim>
					<dim>1</dim>
					<dim>1</dim>
				</port>
			</output>
		</layer>
		<layer id="327" name="MobilenetV2/expanded_conv_15/expand/Conv2D" type="Convolution" version="opset1">
			<data auto_pad="same_upper" dilations="1,1" pads_begin="0,0" pads_end="0,0" strides="1,1" />
			<input>
				<port id="0">
					<dim>1</dim>
					<dim>160</dim>
					<dim>30</dim>
					<dim>30</dim>
				</port>
				<port id="1">
					<dim>960</dim>
					<dim>160</dim>
					<dim>1</dim>
					<dim>1</dim>
				</port>
			</input>
			<output>
				<port id="2" precision="FP16">
					<dim>1</dim>
					<dim>960</dim>
					<dim>30</dim>
					<dim>30</dim>
				</port>
			</output>
		</layer>
		<layer id="328" name="MobilenetV2/expanded_conv_15/expand/BatchNorm/FusedBatchNormV3/variance/Fused_Add_" type="Add" version="opset1">
			<data auto_broadcast="numpy" />
			<input>
				<port id="0">
					<dim>1</dim>
					<dim>960</dim>
					<dim>30</dim>
					<dim>30</dim>
				</port>
				<port id="1">
					<dim>1</dim>
					<dim>960</dim>
					<dim>1</dim>
					<dim>1</dim>
				</port>
			</input>
			<output>
				<port id="2" names="MobilenetV2/expanded_conv_15/expand/BatchNorm/FusedBatchNormV3:0" precision="FP16">
					<dim>1</dim>
					<dim>960</dim>
					<dim>30</dim>
					<dim>30</dim>
				</port>
			</output>
		</layer>
		<layer id="329" name="MobilenetV2/expanded_conv_15/expand/Relu6" type="Clamp" version="opset1">
			<data max="6.0" min="0.0" />
			<input>
				<port id="0">
					<dim>1</dim>
					<dim>960</dim>
					<dim>30</dim>
					<dim>30</dim>
				</port>
			</input>
			<output>
				<port id="1" names="MobilenetV2/expanded_conv_15/expand/Relu6:0,MobilenetV2/expanded_conv_15/expansion_output:0" precision="FP16">
					<dim>1</dim>
					<dim>960</dim>
					<dim>30</dim>
					<dim>30</dim>
				</port>
			</output>
		</layer>
		<layer id="330" name="MobilenetV2/expanded_conv_15/depthwise/BatchNorm/FusedBatchNormV3/mean/Fused_Mul__copy" type="Const" version="opset1">
			<data element_type="f16" offset="3251330" shape="960,1,1,3,3" size="17280" />
			<output>
				<port id="0" names="MobilenetV2/expanded_conv_15/depthwise/depthwise_weights/read:0" precision="FP16">
					<dim>960</dim>
					<dim>1</dim>
					<dim>1</dim>
					<dim>3</dim>
					<dim>3</dim>
				</port>
			</output>
		</layer>
		<layer id="331" name="MobilenetV2/expanded_conv_15/depthwise/depthwise" type="GroupConvolution" version="opset1">
			<data auto_pad="explicit" dilations="4,4" pads_begin="4,4" pads_end="4,4" strides="1,1" />
			<input>
				<port id="0">
					<dim>1</dim>
					<dim>960</dim>
					<dim>30</dim>
					<dim>30</dim>
				</port>
				<port id="1">
					<dim>960</dim>
					<dim>1</dim>
					<dim>1</dim>
					<dim>3</dim>
					<dim>3</dim>
				</port>
			</input>
			<output>
				<port id="2" precision="FP16">
					<dim>1</dim>
…
		<layer id="479" name="strided_slice_8/stack_1" type="Const" version="opset1">
			<data element_type="i64" offset="923874" shape="1" size="8" />
			<output>
				<port id="0" names="strided_slice_8/stack_1:0" precision="I64">
					<dim>1</dim>
				</port>
			</output>
		</layer>
		<layer id="480" name="strided_slice_8/stack_2" type="Const" version="opset1">
			<data element_type="i64" offset="923874" shape="1" size="8" />
			<output>
				<port id="0" names="strided_slice_8/stack_2:0" precision="I64">
					<dim>1</dim>
				</port>
			</output>
		</layer>
		<layer id="481" name="strided_slice_8" type="StridedSlice" version="opset1">
			<data begin_mask="0" ellipsis_mask="0" end_mask="0" new_axis_mask="0" shrink_axis_mask="1" />
			<input>
				<port id="0">
					<dim>2</dim>
				</port>
				<port id="1">
					<dim>1</dim>
				</port>
				<port id="2">
					<dim>1</dim>
				</port>
				<port id="3">
					<dim>1</dim>
				</port>
			</input>
			<output>
				<port id="4" names="strided_slice_8:0" precision="I32" />
			</output>
		</layer>
		<layer id="482" name="strided_slice_10/stack_1/Unsqueeze1070_input_port_1/value" type="Const" version="opset1">
			<data element_type="i64" offset="924018" shape="1" size="8" />
			<output>
				<port id="0" precision="I64">
					<dim>1</dim>
				</port>
			</output>
		</layer>
		<layer id="483" name="strided_slice_10/stack_1/Unsqueeze1070" type="Unsqueeze" version="opset1">
			<input>
				<port id="0" />
				<port id="1">
					<dim>1</dim>
				</port>
			</input>
			<output>
				<port id="2" precision="I32">
					<dim>1</dim>
				</port>
			</output>
		</layer>
		<layer id="484" name="strided_slice_9/stack" type="Const" version="opset1">
			<data element_type="i64" offset="923874" shape="1" size="8" />
			<output>
				<port id="0" names="strided_slice_9/stack:0" precision="I64">
					<dim>1</dim>
				</port>
			</output>
		</layer>
		<layer id="485" name="strided_slice_9/stack_1" type="Const" version="opset1">
			<data element_type="i64" offset="923986" shape="1" size="8" />
			<output>
				<port id="0" names="strided_slice_9/stack_1:0" precision="I64">
					<dim>1</dim>
				</port>
			</output>
		</layer>
		<layer id="486" name="strided_slice_9/stack_2" type="Const" version="opset1">
			<data element_type="i64" offset="923874" shape="1" size="8" />
			<output>
				<port id="0" names="strided_slice_9/stack_2:0" precision="I64">
					<dim>1</dim>
				</port>
			</output>
		</layer>
		<layer id="487" name="strided_slice_9" type="StridedSlice" version="opset1">
			<data begin_mask="0" ellipsis_mask="0" end_mask="0" new_axis_mask="0" shrink_axis_mask="1" />
			<input>
				<port id="0">
					<dim>2</dim>
				</port>
				<port id="1">
					<dim>1</dim>
				</port>
				<port id="2">
					<dim>1</dim>
				</port>
				<port id="3">
					<dim>1</dim>
				</port>
			</input>
			<output>
				<port id="4" names="strided_slice_9:0" precision="I32" />
			</output>
		</layer>
		<layer id="488" name="strided_slice_10/stack_1/Unsqueeze1072_input_port_1/value" type="Const" version="opset1">
			<data element_type="i64" offset="924018" shape="1" size="8" />
			<output>
				<port id="0" precision="I64">
					<dim>1</dim>
				</port>
			</output>
		</layer>
		<layer id="489" name="strided_slice_10/stack_1/Unsqueeze1072" type="Unsqueeze" version="opset1">
			<input>
				<port id="0" />
				<port id="1">
					<dim>1</dim>
				</port>
			</input>
			<output>
				<port id="2" precision="I32">
					<dim>1</dim>
				</port>
			</output>
		</layer>
		<layer id="490" name="strided_slice_10/extend_end_const1245431651" type="Const" version="opset1">
			<data element_type="i32" offset="924018" shape="1" size="8" />
			<output>
				<port id="0" precision="I64">
					<dim>1</dim>
				</port>
			</output>
		</layer>
		<layer id="491" name="strided_slice_10/stack_1" type="Concat" version="opset1">
			<data axis="0" />
			<input>
				<port id="0">
					<dim>1</dim>
				</port>
				<port id="1">
					<dim>1</dim>
				</port>
				<port id="2">
					<dim>1</dim>
				</port>
				<port id="3">
					<dim>1</dim>
				</port>
			</input>
			<output>
				<port id="4" names="strided_slice_10/stack_1:0" precision="I32">
					<dim>4</dim>
				</port>
			</output>
		</layer>
		<layer id="492" name="2245731675" type="Const" version="opset1">
			<data element_type="i32" offset="924026" shape="4" size="16" />
			<output>
				<port id="0" precision="I32">
					<dim>4</dim>
				</port>
			</output>
		</layer>
		<layer id="493" name="2245931021" type="Const" version="opset1">
			<data element_type="i64" offset="924018" shape="" size="8" />
			<output>
				<port id="0" precision="I64" />
			</output>
		</layer>
		<layer id="494" name="strided_slice_10/ShapeGather22460" type="Gather" version="opset7">
			<data batch_dims="0" />
			<input>
				<port id="0">
					<dim>4</dim>
				</port>
				<port id="1">
					<dim>4</dim>
				</port>
				<port id="2" />
			</input>
			<output>
				<port id="3" precision="I32">
					<dim>4</dim>
				</port>
			</output>
		</layer>
		<layer id="495" name="strided_slice_10/Cast_2" type="Convert" version="opset1">
			<data destination_type="i64" />
			<input>
				<port id="0">
					<dim>4</dim>
				</port>
			</input>
			<output>
				<port id="1" precision="I64">
					<dim>4</dim>
				</port>
			</output>
		</layer>
		<layer id="496" name="strided_slice_10" type="StridedSlice" version="opset1">
			<data begin_mask="1,1,1,1" ellipsis_mask="0,0,0,0" end_mask="1,1,0,0" new_axis_mask="0,0,0,0" shrink_axis_mask="0,0,0,0" />
			<input>
				<port id="0">
					<dim>1</dim>
					<dim>4</dim>
					<dim>240</dim>
					<dim>240</dim>
				</port>
				<port id="1">
					<dim>4</dim>
				</port>
				<port id="2">
					<dim>4</dim>
				</port>
				<port id="3">
					<dim>4</dim>
				</port>
			</input>
			<output>
				<port id="4" names="strided_slice_10:0" precision="FP16">
					<dim>1</dim>
					<dim>4</dim>
					<dim>240</dim>
					<dim>240</dim>
				</port>
			</output>
		</layer>
		<layer id="497" name="SemanticProbabilities/shapeof" type="ShapeOf" version="opset3">
			<data output_type="i64" />
			<input>
				<port id="0">
					<dim>1</dim>
					<dim>4</dim>
					<dim>240</dim>
					<dim>240</dim>
				</port>
			</input>
			<output>
				<port id="1" precision="I64">
					<dim>4</dim>
				</port>
			</output>
		</layer>
		<layer id="498" name="SemanticProbabilities/shapeof/GatherNCHWtoNHWC_input_port_1/value2189831456" type="Const" version="opset1">
			<data element_type="i32" offset="923970" shape="4" size="16" />
			<output>
				<port id="0" precision="I32">
					<dim>4</dim>
				</port>
			</output>
		</layer>
		<layer id="499" name="SemanticProbabilities/shapeof/GatherNCHWtoNHWC_input_port_2/value2190031210" type="Const" version="opset1">
			<data element_type="i64" offset="924018" shape="" size="8" />
			<output>
				<port id="0" precision="I64" />
			</output>
		</layer>
		<layer id="500" name="SemanticProbabilities/shapeof/GatherNCHWtoNHWC" type="Gather" version="opset7">
			<data batch_dims="0" />
			<input>
				<port id="0">
					<dim>4</dim>
				</port>
				<port id="1">
					<dim>4</dim>
				</port>
				<port id="2" />
			</input>
			<output>
				<port id="3" precision="I64">
					<dim>4</dim>
				</port>
			</output>
		</layer>
		<layer id="501" name="SemanticProbabilities/StridedSlice_input_port_1/value" type="Const" version="opset1">
			<data element_type="i64" offset="923874" shape="1" size="8" />
			<output>
				<port id="0" precision="I64">
					<dim>1</dim>
				</port>
			</output>
		</layer>
		<layer id="502" name="SemanticProbabilities/StridedSlice_input_port_2/value" type="Const" version="opset1">
			<data element_type="i64" offset="3921282" shape="1" size="8" />
			<output>
				<port id="0" precision="I64">
					<dim>1</dim>
				</port>
			</output>
		</layer>
		<layer id="503" name="SemanticProbabilities/StridedSlice_input_port_3/value" type="Const" version="opset1">
			<data element_type="i64" offset="923874" shape="1" size="8" />
			<output>
				<port id="0" precision="I64">
					<dim>1</dim>
				</port>
			</output>
		</layer>
		<layer id="504" name="SemanticProbabilities/StridedSlice" type="StridedSlice" version="opset1">
			<data begin_mask="0" ellipsis_mask="0" end_mask="0" new_axis_mask="0" shrink_axis_mask="0" />
			<input>
				<port id="0">
					<dim>4</dim>
				</port>
				<port id="1">
					<dim>1</dim>
				</port>
				<port id="2">
					<dim>1</dim>
				</port>
				<port id="3">
					<dim>1</dim>
				</port>
			</input>
			<output>
				<port id="4" precision="I64">
					<dim>2</dim>
				</port>
			</output>
		</layer>
		<layer id="505" name="1007" type="Convert" version="opset1">
			<data destination_type="f32" />
			<input>
				<port id="0">
					<dim>2</dim>
				</port>
			</input>
			<output>
				<port id="1" precision="FP32">
					<dim>2</dim>
				</port>
			</output>
		</layer>
		<layer id="506" name="1008" type="Convert" version="opset1">
			<data destination_type="f32" />
			<input>
				<port id="0">
					<dim>2</dim>
				</port>
			</input>
			<output>
				<port id="1" precision="FP32">
					<dim>2</dim>
				</port>
			</output>
		</layer>
		<layer id="507" name="SemanticProbabilities/Div" type="Divide" version="opset1">
			<data auto_broadcast="numpy" />
			<input>
				<port id="0">
					<dim>2</dim>
				</port>
				<port id="1">
					<dim>2</dim>
				</port>
			</input>
			<output>
				<port id="2" precision="FP32">
					<dim>2</dim>
				</port>
			</output>
		</layer>
		<layer id="508" name="2247931453" type="Const" version="opset1">
			<data element_type="i64" offset="3921298" shape="2" size="16" />
			<output>
				<port id="0" precision="I64">
					<dim>2</dim>
				</port>
			</output>
		</layer>
		<layer id="509" name="SemanticProbabilities/Cast_1" type="Convert" version="opset1">
			<data destination_type="i64" />
			<input>
				<port id="0">
					<dim>2</dim>
				</port>
			</input>
			<output>
				<port id="1" precision="I64">
					<dim>2</dim>
				</port>
			</output>
		</layer>
		<layer id="510" name="SemanticProbabilities" type="Interpolate" version="opset4">
			<data antialias="false" coordinate_transformation_mode="align_corners" cube_coeff="-0.75" mode="linear_onnx" nearest_mode="round_prefer_floor" pads_begin="0,0,0,0" pads_end="0,0,0,0" shape_calculation_mode="sizes" />
			<input>
				<port id="0">
					<dim>1</dim>
					<dim>4</dim>
					<dim>240</dim>
					<dim>240</dim>
				</port>
				<port id="1">
					<dim>2</dim>
				</port>
				<port id="2">
					<dim>2</dim>
				</port>
				<port id="3">
					<dim>2</dim>
				</port>
			</input>
			<output>
				<port id="4" names="SemanticProbabilities:0" precision="FP16">
					<dim>1</dim>
					<dim>4</dim>
					<dim>240</dim>
					<dim>240</dim>
				</port>
			</output>
		</layer>
		<layer id="511" name="SemanticProbabilities:0" type="Result" version="opset1">
			<input>
				<port id="0">
					<dim>1</dim>
					<dim>4</dim>
					<dim>240</dim>
					<dim>240</dim>
				</port>
			</input>
		</layer>
	</layers>
	<edges>
		<edge from-layer="37" from-port="0" to-layer="38" to-port="0" />
		<edge from-layer="36" from-port="0" to-layer="38" to-port="1" />
		<edge from-layer="38" from-port="4" to-layer="39" to-port="0" />
		<edge from-layer="38" from-port="3" to-layer="39" to-port="1" />
		<edge from-layer="38" from-port="2" to-layer="39" to-port="2" />
		<edge from-layer="39" from-port="3" to-layer="41" to-port="0" />
		<edge from-layer="40" from-port="0" to-layer="41" to-port="1" />
		<edge from-layer="41" from-port="2" to-layer="42" to-port="0" />
		<edge from-layer="35" from-port="0" to-layer="42" to-port="1" />
		<edge from-layer="42" from-port="2" to-layer="43" to-port="0" />
		<edge from-layer="34" from-port="0" to-layer="43" to-port="1" />
		<edge from-layer="43" from-port="2" to-layer="44" to-port="0" />
		<edge from-layer="33" from-port="0" to-layer="44" to-port="1" />
		<edge from-layer="44" from-port="2" to-layer="46" to-port="0" />
		<edge from-layer="45" from-port="0" to-layer="46" to-port="1" />
		<edge from-layer="32" from-port="0" to-layer="47" to-port="0" />
		<edge from-layer="46" from-port="2" to-layer="47" to-port="1" />
		<edge from-layer="42" from-port="2" to-layer="51" to-port="0" />
		<edge from-layer="51" from-port="1" to-layer="55" to-port="0" />
		<edge from-layer="52" from-port="0" to-layer="55" to-port="1" />
		<edge from-layer="53" from-port="0" to-layer="55" to-port="2" />
		<edge from-layer="54" from-port="0" to-layer="55" to-port="3" />
		<edge from-layer="56" from-port="0" to-layer="57" to-port="0" />
		<edge from-layer="55" from-port="4" to-layer="57" to-port="1" />
		<edge from-layer="57" from-port="2" to-layer="59" to-port="0" />
		<edge from-layer="58" from-port="0" to-layer="59" to-port="1" />
		<edge from-layer="55" from-port="4" to-layer="60" to-port="0" />
		<edge from-layer="59" from-port="2" to-layer="60" to-port="1" />
		<edge from-layer="60" from-port="2" to-layer="62" to-port="0" />
		<edge from-layer="61" from-port="0" to-layer="62" to-port="1" />
		<edge from-layer="46" from-port="2" to-layer="65" to-port="0" />
		<edge from-layer="65" from-port="1" to-layer="68" to-port="0" />
		<edge from-layer="66" from-port="0" to-layer="68" to-port="1" />
		<edge from-layer="67" from-port="0" to-layer="68" to-port="2" />
		<edge from-layer="68" from-port="3" to-layer="69" to-port="0" />
		<edge from-layer="64" from-port="0" to-layer="69" to-port="1" />
		<edge from-layer="69" from-port="3" to-layer="70" to-port="0" />
		<edge from-layer="63" from-port="0" to-layer="70" to-port="1" />
		<edge from-layer="62" from-port="2" to-layer="71" to-port="0" />
		<edge from-layer="70" from-port="2" to-layer="71" to-port="1" />
		<edge from-layer="71" from-port="2" to-layer="73" to-port="0" />
		<edge from-layer="72" from-port="0" to-layer="73" to-port="1" />
		<edge from-layer="50" from-port="0" to-layer="74" to-port="0" />
		<edge from-layer="73" from-port="2" to-layer="74" to-port="1" />
		<edge from-layer="74" from-port="2" to-layer="75" to-port="0" />
		<edge from-layer="49" from-port="0" to-layer="75" to-port="1" />
		<edge from-layer="51" from-port="1" to-layer="80" to-port="0" />
		<edge from-layer="77" from-port="0" to-layer="80" to-port="1" />
		<edge from-layer="78" from-port="0" to-layer="80" to-port="2" />
		<edge from-layer="79" from-port="0" to-layer="80" to-port="3" />
		<edge from-layer="81" from-port="0" to-layer="82" to-port="0" />
		<edge from-layer="80" from-port="4" to-layer="82" to-port="1" />
		<edge from-layer="82" from-port="2" to-layer="84" to-port="0" />
		<edge from-layer="83" from-port="0" to-layer="84" to-port="1" />
		<edge from-layer="80" from-port="4" to-layer="85" to-port="0" />
		<edge from-layer="84" from-port="2" to-layer="85" to-port="1" />
		<edge from-layer="85" from-port="2" to-layer="87" to-port="0" />
		<edge from-layer="86" from-port="0" to-layer="87" to-port="1" />
		<edge from-layer="69" from-port="4" to-layer="89" to-port="0" />
		<edge from-layer="88" from-port="0" to-layer="89" to-port="1" />
		<edge from-layer="87" from-port="2" to-layer="90" to-port="0" />
		<edge from-layer="89" from-port="2" to-layer="90" to-port="1" />
		<edge from-layer="90" from-port="2" to-layer="92" to-port="0" />
		<edge from-layer="91" from-port="0" to-layer="92" to-port="1" />
		<edge from-layer="76" from-port="0" to-layer="93" to-port="0" />
		<edge from-layer="92" from-port="2" to-layer="93" to-port="1" />
		<edge from-layer="93" from-port="2" to-layer="95" to-port="0" />
		<edge from-layer="94" from-port="0" to-layer="95" to-port="1" />
		<edge from-layer="48" from-port="0" to-layer="97" to-port="0" />
		<edge from-layer="75" from-port="2" to-layer="97" to-port="1" />
		<edge from-layer="95" from-port="2" to-layer="97" to-port="2" />
		<edge from-layer="96" from-port="0" to-layer="97" to-port="3" />
		<edge from-layer="97" from-port="4" to-layer="99" to-port="0" />
		<edge from-layer="98" from-port="0" to-layer="99" to-port="1" />
		<edge from-layer="99" from-port="2" to-layer="101" to-port="0" />
		<edge from-layer="100" from-port="0" to-layer="101" to-port="1" />
		<edge from-layer="101" from-port="2" to-layer="103" to-port="0" />
		<edge from-layer="102" from-port="0" to-layer="103" to-port="1" />
		<edge from-layer="103" from-port="2" to-layer="106" to-port="0" />
		<edge from-layer="104" from-port="0" to-layer="106" to-port="1" />
		<edge from-layer="105" from-port="0" to-layer="106" to-port="2" />
		<edge from-layer="106" from-port="3" to-layer="107" to-port="0" />
		<edge from-layer="101" from-port="3" to-layer="109" to-port="0" />
		<edge from-layer="108" from-port="0" to-layer="109" to-port="1" />
		<edge from-layer="109" from-port="2" to-layer="112" to-port="0" />
		<edge from-layer="110" from-port="0" to-layer="112" to-port="1" />
		<edge from-layer="111" from-port="0" to-layer="112" to-port="2" />
		<edge from-layer="112" from-port="3" to-layer="113" to-port="0" />
		<edge from-layer="46" from-port="2" to-layer="114" to-port="0" />
		<edge from-layer="107" from-port="1" to-layer="114" to-port="1" />
		<edge from-layer="113" from-port="1" to-layer="114" to-port="2" />
		<edge from-layer="47" from-port="2" to-layer="114" to-port="3" />
		<edge from-layer="114" from-port="4" to-layer="116" to-port="0" />
		<edge from-layer="115" from-port="0" to-layer="116" to-port="1" />
		<edge from-layer="116" from-port="2" to-layer="117" to-port="0" />
		<edge from-layer="31" from-port="0" to-layer="117" to-port="1" />
		<edge from-layer="117" from-port="2" to-layer="119" to-port="0" />
		<edge from-layer="118" from-port="0" to-layer="119" to-port="1" />
		<edge from-layer="119" from-port="2" to-layer="121" to-port="0" />
		<edge from-layer="120" from-port="0" to-layer="121" to-port="1" />
		<edge from-layer="121" from-port="2" to-layer="123" to-port="0" />
		<edge from-layer="122" from-port="0" to-layer="123" to-port="1" />
		<edge from-layer="30" from-port="0" to-layer="124" to-port="0" />
		<edge from-layer="123" from-port="2" to-layer="124" to-port="1" />
		<edge from-layer="124" from-port="2" to-layer="126" to-port="0" />
		<edge from-layer="125" from-port="0" to-layer="126" to-port="1" />
		<edge from-layer="126" from-port="2" to-layer="128" to-port="0" />
		<edge from-layer="127" from-port="0" to-layer="128" to-port="1" />
		<edge from-layer="128" from-port="2" to-layer="129" to-port="0" />
		<edge from-layer="29" from-port="0" to-layer="129" to-port="1" />
		<edge from-layer="129" from-port="2" to-layer="130" to-port="0" />
		<edge from-layer="130" from-port="1" to-layer="132" to-port="0" />
		<edge from-layer="131" from-port="0" to-layer="132" to-port="1" />
		<edge from-layer="132" from-port="2" to-layer="133" to-port="0" />
		<edge from-layer="28" from-port="0" to-layer="133" to-port="1" />
		<edge from-layer="133" from-port="2" to-layer="134" to-port="0" />
		<edge from-layer="134" from-port="1" to-layer="135" to-port="0" />
		<edge from-layer="27" from-port="0" to-layer="135" to-port="1" />
		<edge from-layer="135" from-port="2" to-layer="136" to-port="0" />
		<edge from-layer="26" from-port="0" to-layer="136" to-port="1" />
		<edge from-layer="136" from-port="2" to-layer="138" to-port="0" />
		<edge from-layer="137" from-port="0" to-layer="138" to-port="1" />
		<edge from-layer="138" from-port="2" to-layer="139" to-port="0" />
		<edge from-layer="25" from-port="0" to-layer="139" to-port="1" />
		<edge from-layer="139" from-port="2" to-layer="140" to-port="0" />
		<edge from-layer="140" from-port="1" to-layer="142" to-port="0" />
		<edge from-layer="141" from-port="0" to-layer="142" to-port="1" />
		<edge from-layer="142" from-port="2" to-layer="143" to-port="0" />
		<edge from-layer="24" from-port="0" to-layer="143" to-port="1" />
		<edge from-layer="143" from-port="2" to-layer="144" to-port="0" />
		<edge from-layer="144" from-port="1" to-layer="145" to-port="0" />
		<edge from-layer="23" from-port="0" to-layer="145" to-port="1" />
		<edge from-layer="145" from-port="2" to-layer="146" to-port="0" />
		<edge from-layer="22" from-port="0" to-layer="146" to-port="1" />
		<edge from-layer="146" from-port="2" to-layer="152" to-port="0" />
		<edge from-layer="151" from-port="0" to-layer="152" to-port="1" />
		<edge from-layer="152" from-port="2" to-layer="153" to-port="0" />
		<edge from-layer="150" from-port="0" to-layer="153" to-port="1" />
		<edge from-layer="153" from-port="2" to-layer="154" to-port="0" />
		<edge from-layer="154" from-port="1" to-layer="156" to-port="0" />
		<edge from-layer="155" from-port="0" to-layer="156" to-port="1" />
		<edge from-layer="156" from-port="2" to-layer="157" to-port="0" />
		<edge from-layer="149" from-port="0" to-layer="157" to-port="1" />
		<edge from-layer="157" from-port="2" to-layer="158" to-port="0" />
		<edge from-layer="158" from-port="1" to-layer="159" to-port="0" />
		<edge from-layer="148" from-port="0" to-layer="159" to-port="1" />
		<edge from-layer="159" from-port="2" to-layer="160" to-port="0" />
		<edge from-layer="147" from-port="0" to-layer="160" to-port="1" />
		<edge from-layer="160" from-port="2" to-layer="161" to-port="0" />
		<edge from-layer="146" from-port="2" to-layer="161" to-port="1" />
		<edge from-layer="161" from-port="2" to-layer="163" to-port="0" />
		<edge from-layer="162" from-port="0" to-layer="163" to-port="1" />
		<edge from-layer="163" from-port="2" to-layer="164" to-port="0" />
		<edge from-layer="21" from-port="0" to-layer="164" to-port="1" />
		<edge from-layer="164" from-port="2" to-layer="165" to-port="0" />
		<edge from-layer="165" from-port="1" to-layer="167" to-port="0" />
		<edge from-layer="166" from-port="0" to-layer="167" to-port="1" />
		<edge from-layer="167" from-port="2" to-layer="168" to-port="0" />
		<edge from-layer="20" from-port="0" to-layer="168" to-port="1" />
		<edge from-layer="168" from-port="2" to-layer="169" to-port="0" />
		<edge from-layer="169" from-port="1" to-layer="170" to-port="0" />
		<edge from-layer="19" from-port="0" to-layer="170" to-port="1" />
		<edge from-layer="170" from-port="2" to-layer="171" to-port="0" />
		<edge from-layer="18" from-port="0" to-layer="171" to-port="1" />
		<edge from-layer="171" from-port="2" to-layer="177" to-port="0" />
		<edge from-layer="176" from-port="0" to-layer="177" to-port="1" />
		<edge from-layer="177" from-port="2" to-layer="178" to-port="0" />
		<edge from-layer="175" from-port="0" to-layer="178" to-port="1" />
		<edge from-layer="178" from-port="2" to-layer="179" to-port="0" />
		<edge from-layer="179" from-port="1" to-layer="181" to-port="0" />
		<edge from-layer="180" from-port="0" to-layer="181" to-port="1" />
		<edge from-layer="181" from-port="2" to-layer="182" to-port="0" />
		<edge from-layer="174" from-port="0" to-layer="182" to-port="1" />
		<edge from-layer="182" from-port="2" to-layer="183" to-port="0" />
		<edge from-layer="183" from-port="1" to-layer="184" to-port="0" />
		<edge from-layer="173" from-port="0" to-layer="184" to-port="1" />
		<edge from-layer="184" from-port="2" to-layer="185" to-port="0" />
		<edge from-layer="172" from-port="0" to-layer="185" to-port="1" />
		<edge from-layer="185" from-port="2" to-layer="186" to-port="0" />
		<edge from-layer="171" from-port="2" to-layer="186" to-port="1" />
		<edge from-layer="186" from-port="2" to-layer="192" to-port="0" />
		<edge from-layer="191" from-port="0" to-layer="192" to-port="1" />
		<edge from-layer="192" from-port="2" to-layer="193" to-port="0" />
		<edge from-layer="190" from-port="0" to-layer="193" to-port="1" />
		<edge from-layer="193" from-port="2" to-layer="194" to-port="0" />
		<edge from-layer="194" from-port="1" to-layer="196" to-port="0" />
		<edge from-layer="195" from-port="0" to-layer="196" to-port="1" />
		<edge from-layer="196" from-port="2" to-layer="197" to-port="0" />
		<edge from-layer="189" from-port="0" to-layer="197" to-port="1" />
		<edge from-layer="197" from-port="2" to-layer="198" to-port="0" />
		<edge from-layer="198" from-port="1" to-layer="199" to-port="0" />
		<edge from-layer="188" from-port="0" to-layer="199" to-port="1" />
		<edge from-layer="199" from-port="2" to-layer="200" to-port="0" />
		<edge from-layer="187" from-port="0" to-layer="200" to-port="1" />
		<edge from-layer="200" from-port="2" to-layer="201" to-port="0" />
		<edge from-layer="186" from-port="2" to-layer="201" to-port="1" />
		<edge from-layer="201" from-port="2" to-layer="203" to-port="0" />
		<edge from-layer="202" from-port="0" to-layer="203" to-port="1" />
		<edge from-layer="203" from-port="2" to-layer="204" to-port="0" />
		<edge from-layer="17" from-port="0" to-layer="204" to-port="1" />
		<edge from-layer="204" from-port="2" to-layer="205" to-port="0" />
		<edge from-layer="205" from-port="1" to-layer="207" to-port="0" />
		<edge from-layer="206" from-port="0" to-layer="207" to-port="1" />
		<edge from-layer="207" from-port="2" to-layer="208" to-port="0" />
		<edge from-layer="16" from-port="0" to-layer="208" to-port="1" />
		<edge from-layer="208" from-port="2" to-layer="209" to-port="0" />
		<edge from-layer="209" from-port="1" to-layer="210" to-port="0" />
		<edge from-layer="15" from-port="0" to-layer="210" to-port="1" />
		<edge from-layer="210" from-port="2" to-layer="211" to-port="0" />
		<edge from-layer="14" from-port="0" to-layer="211" to-port="1" />
		<edge from-layer="211" from-port="2" to-layer="217" to-port="0" />
		<edge from-layer="216" from-port="0" to-layer="217" to-port="1" />
		<edge from-layer="217" from-port="2" to-layer="218" to-port="0" />
		<edge from-layer="215" from-port="0" to-layer="218" to-port="1" />
		<edge from-layer="218" from-port="2" to-layer="219" to-port="0" />
		<edge from-layer="219" from-port="1" to-layer="221" to-port="0" />
		<edge from-layer="220" from-port="0" to-layer="221" to-port="1" />
		<edge from-layer="221" from-port="2" to-layer="222" to-port="0" />
		<edge from-layer="214" from-port="0" to-layer="222" to-port="1" />
		<edge from-layer="222" from-port="2" to-layer="223" to-port="0" />
		<edge from-layer="223" from-port="1" to-layer="224" to-port="0" />
		<edge from-layer="213" from-port="0" to-layer="224" to-port="1" />
		<edge from-layer="224" from-port="2" to-layer="225" to-port="0" />
		<edge from-layer="212" from-port="0" to-layer="225" to-port="1" />
		<edge from-layer="225" from-port="2" to-layer="226" to-port="0" />
		<edge from-layer="211" from-port="2" to-layer="226" to-port="1" />
		<edge from-layer="226" from-port="2" to-layer="232" to-port="0" />
		<edge from-layer="231" from-port="0" to-layer="232" to-port="1" />
		<edge from-layer="232" from-port="2" to-layer="233" to-port="0" />
		<edge from-layer="230" from-port="0" to-layer="233" to-port="1" />
		<edge from-layer="233" from-port="2" to-layer="234" to-port="0" />
		<edge from-layer="234" from-port="1" to-layer="236" to-port="0" />
		<edge from-layer="235" from-port="0" to-layer="236" to-port="1" />
		<edge from-layer="236" from-port="2" to-layer="237" to-port="0" />
		<edge from-layer="229" from-port="0" to-layer="237" to-port="1" />
		<edge from-layer="237" from-port="2" to-layer="238" to-port="0" />
		<edge from-layer="238" from-port="1" to-layer="239" to-port="0" />
		<edge from-layer="228" from-port="0" to-layer="239" to-port="1" />
		<edge from-layer="239" from-port="2" to-layer="240" to-port="0" />
		<edge from-layer="227" from-port="0" to-layer="240" to-port="1" />
		<edge from-layer="240" from-port="2" to-layer="241" to-port="0" />
		<edge from-layer="226" from-port="2" to-layer="241" to-port="1" />
		<edge from-layer="241" from-port="2" to-layer="247" to-port="0" />
		<edge from-layer="246" from-port="0" to-layer="247" to-port="1" />
		<edge from-layer="247" from-port="2" to-layer="248" to-port="0" />
		<edge from-layer="245" from-port="0" to-layer="248" to-port="1" />
		<edge from-layer="248" from-port="2" to-layer="249" to-port="0" />
		<edge from-layer="249" from-port="1" to-layer="251" to-port="0" />
		<edge from-layer="250" from-port="0" to-layer="251" to-port="1" />
		<edge from-layer="251" from-port="2" to-layer="252" to-port="0" />
		<edge from-layer="244" from-port="0" to-layer="252" to-port="1" />
		<edge from-layer="252" from-port="2" to-layer="253" to-port="0" />
		<edge from-layer="253" from-port="1" to-layer="254" to-port="0" />
		<edge from-layer="243" from-port="0" to-layer="254" to-port="1" />
		<edge from-layer="254" from-port="2" to-layer="255" to-port="0" />
		<edge from-layer="242" from-port="0" to-layer="255" to-port="1" />
		<edge from-layer="255" from-port="2" to-layer="256" to-port="0" />
		<edge from-layer="241" from-port="2" to-layer="256" to-port="1" />
		<edge from-layer="256" from-port="2" to-layer="258" to-port="0" />
		<edge from-layer="257" from-port="0" to-layer="258" to-port="1" />
		<edge from-layer="258" from-port="2" to-layer="259" to-port="0" />
		<edge from-layer="13" from-port="0" to-layer="259" to-port="1" />
		<edge from-layer="259" from-port="2" to-layer="260" to-port="0" />
		<edge from-layer="260" from-port="1" to-layer="262" to-port="0" />
		<edge from-layer="261" from-port="0" to-layer="262" to-port="1" />
		<edge from-layer="262" from-port="2" to-layer="263" to-port="0" />
		<edge from-layer="12" from-port="0" to-layer="263" to-port="1" />
		<edge from-layer="263" from-port="2" to-layer="264" to-port="0" />
		<edge from-layer="264" from-port="1" to-layer="265" to-port="0" />
		<edge from-layer="11" from-port="0" to-layer="265" to-port="1" />
		<edge from-layer="265" from-port="2" to-layer="266" to-port="0" />
		<edge from-layer="10" from-port="0" to-layer="266" to-port="1" />
		<edge from-layer="266" from-port="2" to-layer="272" to-port="0" />
		<edge from-layer="271" from-port="0" to-layer="272" to-port="1" />
		<edge from-layer="272" from-port="2" to-layer="273" to-port="0" />
		<edge from-layer="270" from-port="0" to-layer="273" to-port="1" />
		<edge from-layer="273" from-port="2" to-layer="274" to-port="0" />
		<edge from-layer="274" from-port="1" to-layer="276" to-port="0" />
		<edge from-layer="275" from-port="0" to-layer="276" to-port="1" />
		<edge from-layer="276" from-port="2" to-layer="277" to-port="0" />
		<edge from-layer="269" from-port="0" to-layer="277" to-port="1" />
		<edge from-layer="277" from-port="2" to-layer="278" to-port="0" />
		<edge from-layer="278" from-port="1" to-layer="279" to-port="0" />
		<edge from-layer="268" from-port="0" to-layer="279" to-port="1" />
		<edge from-layer="279" from-port="2" to-layer="280" to-port="0" />
		<edge from-layer="267" from-port="0" to-layer="280" to-port="1" />
		<edge from-layer="280" from-port="2" to-layer="281" to-port="0" />
		<edge from-layer="266" from-port="2" to-layer="281" to-port="1" />
		<edge from-layer="281" from-port="2" to-layer="287" to-port="0" />
		<edge from-layer="286" from-port="0" to-layer="287" to-port="1" />
		<edge from-layer="287" from-port="2" to-layer="288" to-port="0" />
		<edge from-layer="285" from-port="0" to-layer="288" to-port="1" />
		<edge from-layer="288" from-port="2" to-layer="289" to-port="0" />
		<edge from-layer="289" from-port="1" to-layer="291" to-port="0" />
		<edge from-layer="290" from-port="0" to-layer="291" to-port="1" />
		<edge from-layer="291" from-port="2" to-layer="292" to-port="0" />
		<edge from-layer="284" from-port="0" to-layer="292" to-port="1" />
		<edge from-layer="292" from-port="2" to-layer="293" to-port="0" />
		<edge from-layer="293" from-port="1" to-layer="294" to-port="0" />
		<edge from-layer="283" from-port="0" to-layer="294" to-port="1" />
		<edge from-layer="294" from-port="2" to-layer="295" to-port="0" />
		<edge from-layer="282" from-port="0" to-layer="295" to-port="1" />
		<edge from-layer="295" from-port="2" to-layer="296" to-port="0" />
		<edge from-layer="281" from-port="2" to-layer="296" to-port="1" />
		<edge from-layer="296" from-port="2" to-layer="298" to-port="0" />
		<edge from-layer="297" from-port="0" to-layer="298" to-port="1" />
		<edge from-layer="298" from-port="2" to-layer="299" to-port="0" />
		<edge from-layer="9" from-port="0" to-layer="299" to-port="1" />
		<edge from-layer="299" from-port="2" to-layer="300" to-port="0" />
		<edge from-layer="300" from-port="1" to-layer="302" to-port="0" />
		<edge from-layer="301" from-port="0" to-layer="302" to-port="1" />
		<edge from-layer="302" from-port="2" to-layer="303" to-port="0" />
		<edge from-layer="8" from-port="0" to-layer="303" to-port="1" />
		<edge from-layer="303" from-port="2" to-layer="304" to-port="0" />
		<edge from-layer="304" from-port="1" to-layer="305" to-port="0" />
		<edge from-layer="7" from-port="0" to-layer="305" to-port="1" />
		<edge from-layer="305" from-port="2" to-layer="306" to-port="0" />
		<edge from-layer="6" from-port="0" to-layer="306" to-port="1" />
		<edge from-layer="306" from-port="2" to-layer="312" to-port="0" />
		<edge from-layer="311" from-port="0" to-layer="312" to-port="1" />
		<edge from-layer="312" from-port="2" to-layer="313" to-port="0" />
		<edge from-layer="310" from-port="0" to-layer="313" to-port="1" />
		<edge from-layer="313" from-port="2" to-layer="314" to-port="0" />
		<edge from-layer="314" from-port="1" to-layer="316" to-port="0" />
		<edge from-layer="315" from-port="0" to-layer="316" to-port="1" />
		<edge from-layer="316" from-port="2" to-layer="317" to-port="0" />
		<edge from-layer="309" from-port="0" to-layer="317" to-port="1" />
		<edge from-layer="317" from-port="2" to-layer="318" to-port="0" />
		<edge from-layer="318" from-port="1" to-layer="319" to-port="0" />
		<edge from-layer="308" from-port="0" to-layer="319" to-port="1" />
		<edge from-layer="319" from-port="2" to-layer="320" to-port="0" />
		<edge from-layer="307" from-port="0" to-layer="320" to-port="1" />
		<edge from-layer="320" from-port="2" to-layer="321" to-port="0" />
		<edge from-layer="306" from-port="2" to-layer="321" to-port="1" />
		<edge from-layer="321" from-port="2" to-layer="327" to-port="0" />
		<edge from-layer="326" from-port="0" to-layer="327" to-port="1" />
		<edge from-layer="327" from-port="2" to-layer="328" to-port="0" />
		<edge from-layer="325" from-port="0" to-layer="328" to-port="1" />
		<edge from-layer="328" from-port="2" to-layer="329" to-port="0" />
		<edge from-layer="329" from-port="1" to-layer="331" to-port="0" />
		<edge from-layer="330" from-port="0" to-layer="331" to-port="1" />
		<edge from-layer="331" from-port="2" to-layer="332" to-port="0" />
		<edge from-layer="324" from-port="0" to-layer="332" to-port="1" />
		<edge from-layer="332" from-port="2" to-layer="333" to-port="0" />
		<edge from-layer="333" from-port="1" to-layer="334" to-port="0" />
		<edge from-layer="323" from-port="0" to-layer="334" to-port="1" />
		<edge from-layer="334" from-port="2" to-layer="335" to-port="0" />
		<edge from-layer="322" from-port="0" to-layer="335" to-port="1" />
		<edge from-layer="335" from-port="2" to-layer="336" to-port="0" />
		<edge from-layer="321" from-port="2" to-layer="336" to-port="1" />
		<edge from-layer="336" from-port="2" to-layer="338" to-port="0" />
		<edge from-layer="337" from-port="0" to-layer="338" to-port="1" />
		<edge from-layer="338" from-port="2" to-layer="339" to-port="0" />
		<edge from-layer="5" from-port="0" to-layer="339" to-port="1" />
		<edge from-layer="339" from-port="2" to-layer="340" to-port="0" />
		<edge from-layer="340" from-port="1" to-layer="342" to-port="0" />
		<edge from-layer="341" from-port="0" to-layer="342" to-port="1" />
		<edge from-layer="342" from-port="2" to-layer="343" to-port="0" />
		<edge from-layer="4" from-port="0" to-layer="343" to-port="1" />
		<edge from-layer="343" from-port="2" to-layer="344" to-port="0" />
		<edge from-layer="344" from-port="1" to-layer="345" to-port="0" />
		<edge from-layer="3" from-port="0" to-layer="345" to-port="1" />
		<edge from-layer="345" from-port="2" to-layer="346" to-port="0" />
		<edge from-layer="2" from-port="0" to-layer="346" to-port="1" />
		<edge from-layer="346" from-port="2" to-layer="348" to-port="0" />
		<edge from-layer="347" from-port="0" to-layer="348" to-port="1" />
		<edge from-layer="348" from-port="2" to-layer="349" to-port="0" />
		<edge from-layer="1" from-port="0" to-layer="349" to-port="1" />
		<edge from-layer="349" from-port="2" to-layer="350" to-port="0" />
		<edge from-layer="346" from-port="2" to-layer="352" to-port="0" />
		<edge from-layer="352" from-port="1" to-layer="354" to-port="0" />
		<edge from-layer="353" from-port="0" to-layer="354" to-port="1" />
		<edge from-layer="354" from-port="2" to-layer="355" to-port="0" />
		<edge from-layer="351" from-port="0" to-layer="355" to-port="1" />
		<edge from-layer="355" from-port="2" to-layer="356" to-port="0" />
		<edge from-layer="356" from-port="1" to-layer="357" to-port="0" />
		<edge from-layer="357" from-port="1" to-layer="360" to-port="0" />
		<edge from-layer="358" from-port="0" to-layer="360" to-port="1" />
		<edge from-layer="359" from-port="0" to-layer="360" to-port="2" />
		<edge from-layer="360" from-port="3" to-layer="364" to-port="0" />
		<edge from-layer="361" from-port="0" to-layer="364" to-port="1" />
		<edge from-layer="362" from-port="0" to-layer="364" to-port="2" />
		<edge from-layer="363" from-port="0" to-layer="364" to-port="3" />
		<edge from-layer="364" from-port="4" to-layer="365" to-port="0" />
		<edge from-layer="366" from-port="0" to-layer="367" to-port="0" />
		<edge from-layer="365" from-port="1" to-layer="367" to-port="1" />
		<edge from-layer="350" from-port="1" to-layer="369" to-port="0" />
		<edge from-layer="369" from-port="1" to-layer="372" to-port="0" />
		<edge from-layer="370" from-port="0" to-layer="372" to-port="1" />
		<edge from-layer="371" from-port="0" to-layer="372" to-port="2" />
		<edge from-layer="356" from-port="1" to-layer="373" to-port="0" />
		<edge from-layer="372" from-port="3" to-layer="373" to-port="1" />
		<edge from-layer="367" from-port="2" to-layer="373" to-port="2" />
		<edge from-layer="368" from-port="0" to-layer="373" to-port="3" />
		<edge from-layer="373" from-port="4" to-layer="374" to-port="0" />
		<edge from-layer="350" from-port="1" to-layer="374" to-port="1" />
		<edge from-layer="374" from-port="2" to-layer="376" to-port="0" />
		<edge from-layer="375" from-port="0" to-layer="376" to-port="1" />
		<edge from-layer="376" from-port="2" to-layer="377" to-port="0" />
		<edge from-layer="0" from-port="0" to-layer="377" to-port="1" />
		<edge from-layer="377" from-port="2" to-layer="378" to-port="0" />
		<edge from-layer="378" from-port="1" to-layer="380" to-port="0" />
		<edge from-layer="379" from-port="0" to-layer="380" to-port="1" />
		<edge from-layer="380" from-port="2" to-layer="382" to-port="0" />
		<edge from-layer="381" from-port="0" to-layer="382" to-port="1" />
		<edge from-layer="382" from-port="2" to-layer="383" to-port="0" />
		<edge from-layer="383" from-port="1" to-layer="386" to-port="0" />
		<edge from-layer="384" from-port="0" to-layer="386" to-port="1" />
		<edge from-layer="385" from-port="0" to-layer="386" to-port="2" />
		<edge from-layer="386" from-port="3" to-layer="390" to-port="0" />
		<edge from-layer="387" from-port="0" to-layer="390" to-port="1" />
		<edge from-layer="388" from-port="0" to-layer="390" to-port="2" />
		<edge from-layer="389" from-port="0" to-layer="390" to-port="3" />
		<edge from-layer="390" from-port="4" to-layer="391" to-port="0" />
		<edge from-layer="392" from-port="0" to-layer="393" to-port="0" />
		<edge from-layer="391" from-port="1" to-layer="393" to-port="1" />
		<edge from-layer="382" from-port="2" to-layer="396" to-port="0" />
		<edge from-layer="395" from-port="0" to-layer="396" to-port="1" />
		<edge from-layer="393" from-port="2" to-layer="396" to-port="2" />
		<edge from-layer="394" from-port="0" to-layer="396" to-port="3" />
		<edge from-layer="396" from-port="4" to-layer="397" to-port="0" />
		<edge from-layer="397" from-port="1" to-layer="400" to-port="0" />
		<edge from-layer="398" from-port="0" to-layer="400" to-port="1" />
		<edge from-layer="399" from-port="0" to-layer="400" to-port="2" />
		<edge from-layer="400" from-port="3" to-layer="404" to-port="0" />
		<edge from-layer="401" from-port="0" to-layer="404" to-port="1" />
		<edge from-layer="402" from-port="0" to-layer="404" to-port="2" />
		<edge from-layer="403" from-port="0" to-layer="404" to-port="3" />
		<edge from-layer="404" from-port="4" to-layer="405" to-port="0" />
		<edge from-layer="406" from-port="0" to-layer="407" to-port="0" />
		<edge from-layer="405" from-port="1" to-layer="407" to-port="1" />
		<edge from-layer="396" from-port="4" to-layer="410" to-port="0" />
		<edge from-layer="409" from-port="0" to-layer="410" to-port="1" />
		<edge from-layer="407" from-port="2" to-layer="410" to-port="2" />
		<edge from-layer="408" from-port="0" to-layer="410" to-port="3" />
		<edge from-layer="410" from-port="4" to-layer="412" to-port="0" />
		<edge from-layer="411" from-port="0" to-layer="412" to-port="1" />
		<edge from-layer="412" from-port="3" to-layer="417" to-port="0" />
		<edge from-layer="416" from-port="0" to-layer="417" to-port="1" />
		<edge from-layer="417" from-port="2" to-layer="418" to-port="0" />
		<edge from-layer="415" from-port="0" to-layer="418" to-port="1" />
		<edge from-layer="418" from-port="2" to-layer="419" to-port="0" />
		<edge from-layer="42" from-port="2" to-layer="423" to-port="0" />
		<edge from-layer="423" from-port="1" to-layer="427" to-port="0" />
		<edge from-layer="424" from-port="0" to-layer="427" to-port="1" />
		<edge from-layer="425" from-port="0" to-layer="427" to-port="2" />
		<edge from-layer="426" from-port="0" to-layer="427" to-port="3" />
		<edge from-layer="427" from-port="4" to-layer="431" to-port="0" />
		<edge from-layer="428" from-port="0" to-layer="431" to-port="1" />
		<edge from-layer="429" from-port="0" to-layer="431" to-port="2" />
		<edge from-layer="430" from-port="0" to-layer="431" to-port="3" />
		<edge from-layer="431" from-port="4" to-layer="433" to-port="0" />
		<edge from-layer="432" from-port="0" to-layer="433" to-port="1" />
		<edge from-layer="427" from-port="4" to-layer="437" to-port="0" />
		<edge from-layer="434" from-port="0" to-layer="437" to-port="1" />
		<edge from-layer="435" from-port="0" to-layer="437" to-port="2" />
		<edge from-layer="436" from-port="0" to-layer="437" to-port="3" />
		<edge from-layer="437" from-port="4" to-layer="439" to-port="0" />
		<edge from-layer="438" from-port="0" to-layer="439" to-port="1" />
		<edge from-layer="422" from-port="0" to-layer="440" to-port="0" />
		<edge from-layer="433" from-port="2" to-layer="440" to-port="1" />
		<edge from-layer="439" from-port="2" to-layer="440" to-port="2" />
		<edge from-layer="440" from-port="3" to-layer="441" to-port="0" />
		<edge from-layer="419" from-port="1" to-layer="442" to-port="0" />
		<edge from-layer="420" from-port="0" to-layer="442" to-port="1" />
		<edge from-layer="441" from-port="1" to-layer="442" to-port="2" />
		<edge from-layer="421" from-port="0" to-layer="442" to-port="3" />
		<edge from-layer="442" from-port="4" to-layer="444" to-port="0" />
		<edge from-layer="443" from-port="0" to-layer="444" to-port="1" />
		<edge from-layer="444" from-port="2" to-layer="446" to-port="0" />
		<edge from-layer="445" from-port="0" to-layer="446" to-port="1" />
		<edge from-layer="446" from-port="2" to-layer="447" to-port="0" />
		<edge from-layer="447" from-port="1" to-layer="450" to-port="0" />
		<edge from-layer="448" from-port="0" to-layer="450" to-port="1" />
		<edge from-layer="449" from-port="0" to-layer="450" to-port="2" />
		<edge from-layer="450" from-port="3" to-layer="454" to-port="0" />
		<edge from-layer="451" from-port="0" to-layer="454" to-port="1" />
		<edge from-layer="452" from-port="0" to-layer="454" to-port="2" />
		<edge from-layer="453" from-port="0" to-layer="454" to-port="3" />
		<edge from-layer="454" from-port="4" to-layer="455" to-port="0" />
		<edge from-layer="39" from-port="3" to-layer="456" to-port="0" />
		<edge from-layer="456" from-port="1" to-layer="459" to-port="0" />
		<edge from-layer="457" from-port="0" to-layer="459" to-port="1" />
		<edge from-layer="458" from-port="0" to-layer="459" to-port="2" />
		<edge from-layer="459" from-port="3" to-layer="463" to-port="0" />
		<edge from-layer="460" from-port="0" to-layer="463" to-port="1" />
		<edge from-layer="461" from-port="0" to-layer="463" to-port="2" />
		<edge from-layer="462" from-port="0" to-layer="463" to-port="3" />
		<edge from-layer="463" from-port="4" to-layer="464" to-port="0" />
		<edge from-layer="464" from-port="1" to-layer="465" to-port="0" />
		<edge from-layer="455" from-port="1" to-layer="465" to-port="1" />
		<edge from-layer="463" from-port="4" to-layer="467" to-port="0" />
		<edge from-layer="446" from-port="2" to-layer="468" to-port="0" />
		<edge from-layer="467" from-port="1" to-layer="468" to-port="1" />
		<edge from-layer="465" from-port="2" to-layer="468" to-port="2" />
		<edge from-layer="466" from-port="0" to-layer="468" to-port="3" />
		<edge from-layer="468" from-port="4" to-layer="470" to-port="0" />
		<edge from-layer="469" from-port="0" to-layer="470" to-port="1" />
		<edge from-layer="470" from-port="2" to-layer="471" to-port="0" />
		<edge from-layer="414" from-port="0" to-layer="471" to-port="1" />
		<edge from-layer="471" from-port="2" to-layer="472" to-port="0" />
		<edge from-layer="472" from-port="1" to-layer="473" to-port="0" />
		<edge from-layer="410" from-port="4" to-layer="474" to-port="0" />
		<edge from-layer="427" from-port="4" to-layer="481" to-port="0" />
		<edge from-layer="478" from-port="0" to-layer="481" to-port="1" />
		<edge from-layer="479" from-port="0" to-layer="481" to-port="2" />
		<edge from-layer="480" from-port="0" to-layer="481" to-port="3" />
		<edge from-layer="481" from-port="4" to-layer="483" to-port="0" />
		<edge from-layer="482" from-port="0" to-layer="483" to-port="1" />
		<edge from-layer="427" from-port="4" to-layer="487" to-port="0" />
		<edge from-layer="484" from-port="0" to-layer="487" to-port="1" />
		<edge from-layer="485" from-port="0" to-layer="487" to-port="2" />
		<edge from-layer="486" from-port="0" to-layer="487" to-port="3" />
		<edge from-layer="487" from-port="4" to-layer="489" to-port="0" />
		<edge from-layer="488" from-port="0" to-layer="489" to-port="1" />
		<edge from-layer="477" from-port="0" to-layer="491" to-port="0" />
		<edge from-layer="483" from-port="2" to-layer="491" to-port="1" />
		<edge from-layer="489" from-port="2" to-layer="491" to-port="2" />
		<edge from-layer="490" from-port="0" to-layer="491" to-port="3" />
		<edge from-layer="491" from-port="4" to-layer="494" to-port="0" />
		<edge from-layer="492" from-port="0" to-layer="494" to-port="1" />
		<edge from-layer="493" from-port="0" to-layer="494" to-port="2" />
		<edge from-layer="494" from-port="3" to-layer="495" to-port="0" />
		<edge from-layer="474" from-port="1" to-layer="496" to-port="0" />
		<edge from-layer="475" from-port="0" to-layer="496" to-port="1" />
		<edge from-layer="495" from-port="1" to-layer="496" to-port="2" />
		<edge from-layer="476" from-port="0" to-layer="496" to-port="3" />
		<edge from-layer="496" from-port="4" to-layer="497" to-port="0" />
		<edge from-layer="497" from-port="1" to-layer="500" to-port="0" />
		<edge from-layer="498" from-port="0" to-layer="500" to-port="1" />
		<edge from-layer="499" from-port="0" to-layer="500" to-port="2" />
		<edge from-layer="500" from-port="3" to-layer="504" to-port="0" />
		<edge from-layer="501" from-port="0" to-layer="504" to-port="1" />
		<edge from-layer="502" from-port="0" to-layer="504" to-port="2" />
		<edge from-layer="503" from-port="0" to-layer="504" to-port="3" />
		<edge from-layer="504" from-port="4" to-layer="505" to-port="0" />
		<edge from-layer="463" from-port="4" to-layer="506" to-port="0" />
		<edge from-layer="506" from-port="1" to-layer="507" to-port="0" />
		<edge from-layer="505" from-port="1" to-layer="507" to-port="1" />
		<edge from-layer="463" from-port="4" to-layer="509" to-port="0" />
		<edge from-layer="496" from-port="4" to-layer="510" to-port="0" />
		<edge from-layer="509" from-port="1" to-layer="510" to-port="1" />
		<edge from-layer="507" from-port="2" to-layer="510" to-port="2" />
		<edge from-layer="508" from-port="0" to-layer="510" to-port="3" />
		<edge from-layer="510" from-port="4" to-layer="511" to-port="0" />
	</edges>
	<meta_data>
		<MO_version value="2021.4.0-3839-cd81789d294-releases/2021/4" />
		<cli_parameters>
			<data_type value="FP16" />
			<disable_nhwc_to_nchw value="False" />
			<disable_resnet_optimization value="False" />
			<disable_weights_compression value="False" />
			<enable_concat_optimization value="False" />
			<extensions value="DIR" />
			<framework value="tf" />
			<freeze_placeholder_with_value value="{}" />
			<generate_deprecated_IR_V7 value="False" />
			<input_model value="DIR/frozen_adl_pcami_seg.pb" />
			<input_model_is_text value="False" />
			<input_shape value="[1,240,240,3]" />
			<keep_shape_ops value="True" />
			<legacy_ir_generation value="False" />
			<log_level value="ERROR" />
			<mean_scale_values value="{}" />
			<mean_values value="()" />
			<model_name value="adl_pcami_seg" />
			<output_dir value="DIR" />
			<placeholder_data_types value="{}" />
			<placeholder_shapes value="[  1 240 240   3]" />
			<progress value="False" />
			<reverse_input_channels value="True" />
			<scale_values value="()" />
			<silent value="False" />
			<static_shape value="False" />
			<stream_output value="False" />
			<transform value="" />
			<unset unset_cli_parameters="batch, disable_fusing, disable_gfusing, finegrain_fusing, input, input_checkpoint, input_meta_graph, move_to_preprocess, output, saved_model_dir, saved_model_tags, scale, tensorboard_logdir, tensorflow_custom_layer_libraries, tensorflow_custom_operations_config_update, tensorflow_object_detection_api_pipeline_config, tensorflow_use_custom_operations_config, transformations_config" />
		</cli_parameters>
	</meta_data>
</net>